Aleesa.tflite (tflite, 63544 bytes, 18 tensors)

tfl.pseudo_qconst1 i1 [1, 2368] scale=0.0044818125 zero_point=0
000000 f4 b9 d9 e7 f7 f4 1b ef fb c6 f3 da f9 f0 09 e9
       -0.053781748 -0.3182087 -0.17479068 -0.11204531 -0.04033631 -0.053781748 0.12100894 -0.076190814 -0.022409063 -0.25994512 -0.058263563 -0.17030887 -0.03137269 -0.071709 0.04033631 -0.10308169
000010 fe dc 1c f2 f0 f1 e6 f4 0e 0f e3 c0 11 ed ec 1a
       -0.008963625 -0.16134524 0.12549075 -0.06274538 -0.071709 -0.067227185 -0.116527125 -0.053781748 0.06274538 0.067227185 -0.12997256 -0.286836 0.076190814 -0.08515444 -0.08963625 0.116527125
000020 dd d6 0b e7 c6 de e3 f2 ed 15 f4 e8 04 0c f2 ba
       -0.15686344 -0.18823612 0.049299937 -0.11204531 -0.25994512 -0.15238163 -0.12997256 -0.06274538 -0.08515444 0.09411806 -0.053781748 -0.107563496 0.01792725 0.053781748 -0.06274538 -0.31372687
000030 eb f8 37 17 fd e9 08 18 f0 eb 05 13 cc e5 e3 fd
       -0.09411806 -0.0358545 0.24649969 0.10308169 -0.013445437 -0.10308169 0.0358545 0.107563496 -0.071709 -0.09411806 0.022409063 0.08515444 -0.23305425 -0.12100894 -0.12997256 -0.013445437
000040 f6 d6 db e9 00 02 17 0b e9 d6 0e f3 06 03 0c 07
       -0.044818126 -0.18823612 -0.16582707 -0.10308169 0.0 0.008963625 0.10308169 0.049299937 -0.10308169 -0.18823612 0.06274538 -0.058263563 0.026890874 0.013445437 0.053781748 0.03137269
000050 06 e5 1e fe f2 02 eb 02 12 0a 02 be 0a e9 00 07
       0.026890874 -0.12100894 0.13445437 -0.008963625 -0.06274538 0.008963625 -0.09411806 0.008963625 0.08067262 0.044818126 0.008963625 -0.2957996 0.044818126 -0.10308169 0.0 0.03137269
000060 f3 e6 08 eb ee e8 e3 01 ee 11 05 ec 0d fe ed cb
       -0.058263563 -0.116527125 0.0358545 -0.09411806 -0.08067262 -0.107563496 -0.12997256 0.0044818125 -0.08067262 0.076190814 0.022409063 -0.08963625 0.058263563 -0.008963625 -0.08515444 -0.23753606
000070 08 01 23 11 f3 f1 0c 0e ef f4 12 08 fa f8 db 12
       0.0358545 0.0044818125 0.15686344 0.076190814 -0.058263563 -0.067227185 0.053781748 0.06274538 -0.076190814 -0.053781748 0.08067262 0.0358545 -0.026890874 -0.0358545 -0.16582707 0.08067262
000080 0b e6 df 03 09 0d 0e 14 dd f0 04 0e 0d fa 11 05
       0.049299937 -0.116527125 -0.1478998 0.013445437 0.04033631 0.058263563 0.06274538 0.08963625 -0.15686344 -0.071709 0.01792725 0.06274538 0.058263563 -0.026890874 0.076190814 0.022409063
000090 04 f1 19 18 ff f8 02 16 12 09 fb c9 0e fa 09 fb
       0.01792725 -0.067227185 0.11204531 0.107563496 -0.0044818125 -0.0358545 0.008963625 0.09859987 0.08067262 0.04033631 -0.022409063 -0.24649969 0.06274538 -0.026890874 0.04033631 -0.022409063
0000a0 fb f3 02 ef f1 09 e6 fe f6 0f 0f f9 17 f7 f0 f1
       -0.022409063 -0.058263563 0.008963625 -0.076190814 -0.067227185 0.04033631 -0.116527125 -0.008963625 -0.044818126 0.067227185 0.067227185 -0.03137269 0.10308169 -0.04033631 -0.071709 -0.067227185
0000b0 0c fd 17 0e 06 ee e8 1e f9 fd 14 fe 08 fd e2 0e
       0.053781748 -0.013445437 0.10308169 0.06274538 0.026890874 -0.08067262 -0.107563496 0.13445437 -0.03137269 -0.013445437 0.08963625 -0.008963625 0.0358545 -0.013445437 -0.13445437 0.06274538
0000c0 08 f1 d3 08 15 13 0d 23 e6 f3 fb 04 13 f7 0e 0e
       0.0358545 -0.067227185 -0.20168155 0.0358545 0.09411806 0.08515444 0.058263563 0.15686344 -0.116527125 -0.058263563 -0.022409063 0.01792725 0.08515444 -0.04033631 0.06274538 0.06274538
0000d0 f9 f3 0c 23 10 fc 07 13 09 25 03 c1 17 00 14 f9
       -0.03137269 -0.058263563 0.053781748 0.15686344 0.071709 -0.01792725 0.03137269 0.08515444 0.04033631 0.16582707 0.013445437 -0.28235418 0.10308169 0.0 0.08963625 -0.03137269
0000e0 fc 00 ee f5 e2 13 f4 fc f1 0d 17 08 12 01 e4 fe
       -0.01792725 0.0 -0.08067262 -0.049299937 -0.13445437 0.08515444 -0.053781748 -0.01792725 -0.067227185 0.058263563 0.10308169 0.0358545 0.08067262 0.0044818125 -0.12549075 -0.008963625
0000f0 15 07 0c 01 f6 f4 f3 16 e7 01 0c fb fa f8 e2 11
       0.09411806 0.03137269 0.053781748 0.0044818125 -0.044818126 -0.053781748 -0.058263563 0.09859987 -0.11204531 0.0044818125 0.053781748 -0.022409063 -0.026890874 -0.0358545 -0.13445437 0.076190814

tfl.pseudo_qconst3 i1 [64, 1, 1, 64]
000000 1f fb 2c 5e be cc 14 fb 37 06 a2 fb d3 cd 12 fd
       31 -5 44 94 -66 -52 20 -5 55 6 -94 -5 -45 -51 18 -3
000010 d0 2e 69 a7 0b 29 f4 a6 16 c0 a2 4e e6 02 7d 4d
       -48 46 105 -89 11 41 -12 -90 22 -64 -94 78 -26 2 125 77
000020 31 f5 ff bd 20 29 11 f9 72 0e de 44 3c 42 cd 02
       49 -11 -1 -67 32 41 17 -7 114 14 -34 68 60 66 -51 2
000030 cb a2 09 28 fd 68 e2 07 1a 0e 15 81 c5 98 4b fe
       -53 -94 9 40 -3 104 -30 7 26 14 21 -127 -59 -104 75 -2
000040 ed 3b b2 02 bb b7 4c 20 32 17 e3 d3 e3 37 bc 07
       -19 59 -78 2 -69 -73 76 32 50 23 -29 -45 -29 55 -68 7
000050 81 29 1f 4b a9 1f fe 3c 0f 0e 08 e8 d1 03 3e df
       -127 41 31 75 -87 31 -2 60 15 14 8 -24 -47 3 62 -33
000060 42 ff 29 1a 43 dd 2f fc e1 3a f6 0e fe b9 09 64
       66 -1 41 26 67 -35 47 -4 -31 58 -10 14 -2 -71 9 100
000070 fe e8 20 1f bd cb e4 65 12 14 15 ef fb e1 ea 1a
       -2 -24 32 31 -67 -53 -28 101 18 20 21 -17 -5 -31 -22 26
000080 12 3d ec eb 21 34 d8 db df 01 39 c7 d6 17 73 4a
       18 61 -20 -21 33 52 -40 -37 -33 1 57 -57 -42 23 115 74
000090 7f 46 d2 17 29 ee 13 25 11 57 02 42 e6 fb cd f6
       127 70 -46 23 41 -18 19 37 17 87 2 66 -26 -5 -51 -10
0000a0 1a e5 26 de d5 b8 f6 13 cd 3f dd d4 07 4f 0d ee
       26 -27 38 -34 -43 -72 -10 19 -51 63 -35 -44 7 79 13 -18
0000b0 36 0f da d6 1b 04 da 9c f0 19 0a 1e c1 cb c4 b2
       54 15 -38 -42 27 4 -38 -100 -16 25 10 30 -63 -53 -60 -78
0000c0 32 2e d1 d1 b4 e0 20 3b fe e7 f1 ab be e7 f1 e2
       50 46 -47 -47 -76 -32 32 59 -2 -25 -15 -85 -66 -25 -15 -30
0000d0 e1 7f 2a 21 c1 2a ea 2d f5 2d 02 57 17 09 e9 e4
       -31 127 42 33 -63 42 -22 45 -11 45 2 87 23 9 -23 -28
0000e0 18 50 00 44 01 e9 08 fb c0 25 22 28 4a 08 ed 03
       24 80 0 68 1 -23 8 -5 -64 37 34 40 74 8 -19 3
0000f0 08 e4 e7 df e1 07 29 23 e1 d8 27 4d f1 ec c0 0b
       8 -28 -25 -33 -31 7 41 35 -31 -40 39 77 -15 -20 -64 11

tfl.pseudo_qconst5 i1 [1, 23, 1, 64]
000000 d6 5a 88 b7 c4 a2 7f 51 f0 7f c3 46 e4 34 81 64
       -42 90 -120 -73 -60 -94 127 81 -16 127 -61 70 -28 52 -127 100
000010 87 32 ad a2 81 c3 e5 65 f3 fe 77 c5 ee 32 75 12
       -121 50 -83 -94 -127 -61 -27 101 -13 -2 119 -59 -18 50 117 18
000020 7f 3c 79 7f d4 34 7f 11 bc 7f 0f 94 7f a2 7f 65
       127 60 121 127 -44 52 127 17 -68 127 15 -108 127 -94 127 101
000030 81 05 37 fe c7 a9 d7 51 8c 2e 57 d2 ac 88 31 1c
       -127 5 55 -2 -57 -87 -41 81 -116 46 87 -46 -84 -120 49 28
000040 ca 4f ad 8c ab 9d 69 52 e9 7b d9 2a 04 25 89 7f
       -54 79 -83 -116 -85 -99 105 82 -23 123 -39 42 4 37 -119 127
000050 81 64 99 d2 99 c6 e4 7f 1a e4 4b d4 ee 46 7f f2
       -127 100 -103 -46 -103 -58 -28 127 26 -28 75 -44 -18 70 127 -14
000060 7f 29 7f 42 d6 fe 2a 48 8f 77 d6 8e 4e a3 55 78
       127 41 127 66 -42 -2 42 72 -113 119 -42 -114 78 -93 85 120
000070 c4 f7 63 27 c6 81 c7 68 81 6f 3b d3 d5 82 32 3c
       -60 -9 99 39 -58 -127 -57 104 -127 111 59 -45 -43 -126 50 60
000080 f8 61 c5 98 cc 81 55 30 02 69 b5 35 e6 15 8c 6f
       -8 97 -59 -104 -52 -127 85 48 2 105 -75 53 -26 21 -116 111
000090 87 32 a0 d6 a2 fc fd 6b 54 d7 53 c3 d4 70 6b d2
       -121 50 -96 -42 -94 -4 -3 107 84 -41 83 -61 -44 112 107 -46
0000a0 47 36 7c 3e c2 10 1c 59 cf 7a b1 95 3b 9e 32 7f
       71 54 124 62 -62 16 28 89 -49 122 -79 -107 59 -98 50 127
0000b0 ca ec 65 16 df af c0 54 ae 74 46 e8 ff ac 39 4b
       -54 -20 101 22 -33 -81 -64 84 -82 116 70 -24 -1 -84 57 75
0000c0 f5 4d d1 ed ac bb 32 22 2c 73 88 38 e4 2b a1 51
       -11 77 -47 -19 -84 -69 50 34 44 115 -120 56 -28 43 -95 81
0000d0 9c 31 c6 a6 db ee 04 57 11 b5 2d e2 dd 73 4b a5
       -100 49 -58 -90 -37 -18 4 87 17 -75 45 -30 -35 115 75 -91
0000e0 4f 19 69 72 e0 06 48 7f dc 59 a3 28 25 91 fe 78
       79 25 105 114 -32 6 72 127 -36 89 -93 40 37 -111 -2 120
0000f0 c5 df 7f 2e cf b4 f5 56 ce 4f 2e e2 f6 f3 3a 3f
       -59 -33 127 46 -49 -76 -11 86 -50 79 46 -30 -10 -13 58 63

tfl.pseudo_qconst7 i1 [64, 1, 1, 64]
000000 3b 32 25 1b f7 60 11 da 23 e1 1d 28 0c d8 22 02
       59 50 37 27 -9 96 17 -38 35 -31 29 40 12 -40 34 2
000010 f0 22 f5 f1 f8 07 3e fa 2c 0c d3 e9 7f 02 25 e3
       -16 34 -11 -15 -8 7 62 -6 44 12 -45 -23 127 2 37 -29
000020 5b f9 f8 d1 d3 35 15 4d 4b cb fe 0f eb be 11 2d
       91 -7 -8 -47 -45 53 21 77 75 -53 -2 15 -21 -66 17 45
000030 d5 b3 01 fb 0c 02 b2 fd c1 00 20 d0 cd 04 e7 7b
       -43 -77 1 -5 12 2 -78 -3 -63 0 32 -48 -51 4 -25 123
000040 c9 18 1f d7 11 ae 29 dc 96 7c 11 24 a8 e7 b6 2a
       -55 24 31 -41 17 -82 41 -36 -106 124 17 36 -88 -25 -74 42
000050 f2 a7 f8 ca 1d 18 90 27 2a 19 3e 40 b3 fa 1a ea
       -14 -89 -8 -54 29 24 -112 39 42 25 62 64 -77 -6 26 -22
000060 b3 04 c5 87 1c ca 3b e8 c2 f4 f5 1d c7 22 37 86
       -77 4 -59 -121 28 -54 59 -24 -62 -12 -11 29 -57 34 55 -122
000070 5f 81 ec 5e 36 c4 e5 4b 8c c3 c8 3e be 99 55 4b
       95 -127 -20 94 54 -60 -27 75 -116 -61 -56 62 -66 -103 85 75
000080 0d eb f4 28 1d 20 28 f6 de f6 81 ef 3f e3 d2 00
       13 -21 -12 40 29 32 40 -10 -34 -10 -127 -17 63 -29 -46 0
000090 14 ff dd f8 ee f4 dc f2 2b cf 31 b7 16 88 e2 f9
       20 -1 -35 -8 -18 -12 -36 -14 43 -49 49 -73 22 -120 -30 -7
0000a0 de 0e 1f d5 fd e3 24 0f 39 ff ff e6 1c 37 2c 1c
       -34 14 31 -43 -3 -29 36 15 57 -1 -1 -26 28 55 44 28
0000b0 f7 0e da 06 ca 2c 37 1d d7 25 3d f7 15 d5 35 0a
       -9 14 -38 6 -54 44 55 29 -41 37 61 -9 21 -43 53 10
0000c0 17 23 10 be 02 ed 45 c3 0c 4f 22 17 ef 12 af da
       23 35 16 -66 2 -19 69 -61 12 79 34 23 -17 18 -81 -38
0000d0 4e 49 e1 c3 2f fd 25 ab 81 83 27 95 68 c8 1a b1
       78 73 -31 -61 47 -3 37 -85 -127 -125 39 -107 104 -56 26 -79
0000e0 b6 04 ab ee 16 ff e5 34 51 99 0d e1 e2 1e d9 f0
       -74 4 -85 -18 22 -1 -27 52 81 -103 13 -31 -30 30 -39 -16
0000f0 1f 07 fd d3 fb f9 3b d9 b7 16 09 08 05 db 5b 50
       31 7 -3 -45 -5 -7 59 -39 -73 22 9 8 5 -37 91 80

tfl.pseudo_qconst9 i1 [1, 15, 1, 32]
000000 6a e1 81 81 cc f7 7b 81 df 81 41 ba 81 aa 3e 91
       106 -31 -127 -127 -52 -9 123 -127 -33 -127 65 -70 -127 -86 62 -111
000010 e1 84 b9 81 7f 5d 05 5d 81 56 9e 60 5a 02 79 81
       -31 -124 -71 -127 127 93 5 93 -127 86 -98 96 90 2 121 -127
000020 7f 46 a8 a8 f8 f8 7f 96 bf da d5 bb 0c 9d d8 81
       127 70 -88 -88 -8 -8 127 -106 -65 -38 -43 -69 12 -99 -40 -127
000030 38 81 b9 b1 2c 6d bd 55 bd 00 81 1f 3e 44 4f a1
       56 -127 -71 -79 44 109 -67 85 -67 0 -127 31 62 68 79 -95
000040 79 ef 9d 95 09 32 4a 98 d3 df ec 85 c6 cf f6 95
       121 -17 -99 -107 9 50 74 -104 -45 -33 -20 -123 -58 -49 -10 -107
000050 f8 a6 17 cd 35 10 9b 38 ae 51 8f 7f 18 f7 36 a7
       -8 -90 23 -51 53 16 -101 56 -82 81 -113 127 24 -9 54 -89
000060 76 ac b4 ab 0b d3 30 b9 04 e0 1e fa fa b6 c3 bb
       118 -84 -76 -85 11 -45 48 -71 4 -32 30 -6 -6 -74 -61 -69
000070 31 ae 2a d3 2b 2f 05 7f b5 5b 9a 70 49 25 ef e0
       49 -82 42 -45 43 47 5 127 -75 91 -102 112 73 37 -17 -32
000080 4d cd bd d1 7f 12 f4 c3 c7 c4 f7 e1 c1 fd 90 c1
       77 -51 -67 -47 127 18 -12 -61 -57 -60 -9 -31 -63 -3 -112 -63
000090 e5 ec 39 3a 3a 3f 02 5d cc 57 fe 31 53 45 24 e5
       -27 -20 57 58 58 63 2 93 -52 87 -2 49 83 69 36 -27
0000a0 2c 9b e8 c1 73 1e 0a ba ac be 1e e8 fc f5 7f e3
       44 -101 -24 -63 115 30 10 -70 -84 -66 30 -24 -4 -11 127 -29
0000b0 fd ea 1e 0c 69 7f ae c6 c5 1c bc 31 5f 28 10 e9
       -3 -22 30 12 105 127 -82 -58 -59 28 -68 49 95 40 16 -23
0000c0 31 da e2 df ef 11 1e c0 b5 12 e8 1c 49 f5 2e f9
       49 -38 -30 -33 -17 17 30 -64 -75 18 -24 28 73 -11 46 -7
0000d0 27 e9 4e 20 f6 e4 fe e0 df c0 1b 7a 7f 5d fc fc
       39 -23 78 32 -10 -28 -2 -32 -33 -64 27 122 127 93 -4 -4
0000e0 30 81 df 12 f5 d2 07 d6 e3 d9 a5 7f c8 c8 42 04
       48 -127 -33 18 -11 -46 7 -42 -29 -39 -91 127 -56 -56 66 4
0000f0 8c 0a 3f cb c4 d6 01 db e9 bc 0e 38 49 7f 81 0b
       -116 10 63 -53 -60 -42 1 -37 -23 -68 14 56 73 127 -127 11

tfl.pseudo_qconst11 i1 [1, 9, 1, 32]
000000 0c 79 05 7f d8 25 e7 10 3c 58 f8 db 40 04 3d 9f
       12 121 5 127 -40 37 -25 16 60 88 -8 -37 64 4 61 -97
000010 f1 34 f1 2b fd 45 91 ad 4e c7 ff 07 3c 1b 81 2b
       -15 52 -15 43 -3 69 -111 -83 78 -57 -1 7 60 27 -127 43
000020 fc 40 8f 76 81 d6 3a e4 f5 e9 07 b3 d7 f5 d8 df
       -4 64 -113 118 -127 -42 58 -28 -11 -23 7 -77 -41 -11 -40 -33
000030 f4 1e 2c 03 d0 4b f3 8d 42 ad de 02 0d ea 06 81
       -12 30 44 3 -48 75 -13 -115 66 -83 -34 2 13 -22 6 -127
000040 6a 42 2f 25 90 1e f2 d0 89 72 f6 e8 4a 30 d9 e6
       106 66 47 37 -112 30 -14 -48 -119 114 -10 -24 74 48 -39 -26
000050 e5 58 08 3f 08 1b 14 a3 60 b4 40 2a e8 d6 19 13
       -27 88 8 63 8 27 20 -93 96 -76 64 42 -24 -42 25 19
000060 21 e0 43 21 a6 78 6a f2 81 77 f3 81 6c c0 9f 11
       33 -32 67 33 -90 120 106 -14 -127 119 -13 -127 108 -64 -97 17
000070 0b 17 eb 4b 81 0c 2e a9 47 e4 db 7f df e2 99 fd
       11 23 -21 75 -127 12 46 -87 71 -28 -37 127 -33 -30 -103 -3
000080 68 d1 56 41 36 7b 2d 15 93 6a a5 c9 6e 20 81 08
       104 -47 86 65 54 123 45 21 -109 106 -91 -55 110 32 -127 8
000090 0d 00 e4 64 21 41 2c f2 7f 05 e8 5f b0 bf 88 3a
       13 0 -28 100 33 65 44 -14 127 5 -24 95 -80 -65 -120 58
0000a0 77 28 81 e3 61 7f b7 a4 10 1e 8d 4e 71 37 af 7f
       119 40 -127 -29 97 127 -73 -92 16 30 -115 78 113 55 -81 127
0000b0 0d a0 04 64 e9 e7 0c d8 32 f9 08 0e f1 9f c8 68
       13 -96 4 100 -23 -25 12 -40 50 -7 8 14 -15 -97 -56 104
0000c0 43 bc 06 59 6c 39 37 8e 29 7f 8e f3 7f 7f 2f 58
       67 -68 6 89 108 57 55 -114 41 127 -114 -13 127 127 47 88
0000d0 48 81 ee 7f 66 84 81 2a 7a 4a b0 17 fd 83 12 e1
       72 -127 -18 127 102 -124 -127 42 122 74 -80 23 -3 -125 18 -31
0000e0 7f 17 86 60 2c 29 65 93 12 ad a3 73 0c 5d 1a 35
       127 23 -122 96 44 41 101 -109 18 -83 -93 115 12 93 26 53
0000f0 5d 90 c0 59 3d 81 9e 7f 42 6f a5 8d 63 81 bb 9a
       93 -112 -64 89 61 -127 -98 127 66 111 -91 -115 99 -127 -69 -102

tfl.pseudo_qconst13 i1 [64, 1, 1, 64]
000000 ed ed ff df 81 15 54 a9 c5 26 28 e5 38 1d 18 22
       -19 -19 -1 -33 -127 21 84 -87 -59 38 40 -27 56 29 24 34
000010 11 de ff fa 08 da 1a 40 07 c2 cc 55 68 c4 f0 e1
       17 -34 -1 -6 8 -38 26 64 7 -62 -52 85 104 -60 -16 -31
000020 e9 39 f3 c0 e6 23 c6 ce 4f ff e7 bb 0f c5 04 c9
       -23 57 -13 -64 -26 35 -58 -50 79 -1 -25 -69 15 -59 4 -55
000030 fd 08 fb fe e6 fe 20 13 d6 1f 11 ee 17 59 0b 02
       -3 8 -5 -2 -26 -2 32 19 -42 31 17 -18 23 89 11 2
000040 21 c3 5e d0 c7 e2 19 f6 04 bd e1 58 c4 0e b4 3c
       33 -61 94 -48 -57 -30 25 -10 4 -67 -31 88 -60 14 -76 60
000050 f7 bf 5b ea dd 13 32 ab ee 19 96 43 0b 26 2d 0c
       -9 -65 91 -22 -35 19 50 -85 -18 25 -106 67 11 38 45 12
000060 f1 38 f7 df 11 c6 09 07 3b ec e0 0b d2 22 28 fb
       -15 56 -9 -33 17 -58 9 7 59 -20 -32 11 -46 34 40 -5
000070 53 83 58 38 20 27 3a e4 e5 81 a0 fd bf cd 29 36
       83 -125 88 56 32 39 58 -28 -27 -127 -96 -3 -65 -51 41 54
000080 0d 28 bf 43 6d e2 22 1c f1 04 08 da 9b d1 c2 46
       13 40 -65 67 109 -30 34 28 -15 4 8 -38 -101 -47 -62 70
000090 52 d2 a9 4f be f0 ca 18 68 01 21 db ef 3b 81 0b
       82 -46 -87 79 -66 -16 -54 24 104 1 33 -37 -17 59 -127 11
0000a0 1b 0f 1c 02 d3 36 fa 08 99 00 1b 1e ce 0a e1 2b
       27 15 28 2 -45 54 -6 8 -103 0 27 30 -50 10 -31 43
0000b0 31 50 12 ef 0e bf 02 43 2d b1 ea fc 47 e9 56 4f
       49 80 18 -17 14 -65 2 67 45 -79 -22 -4 71 -23 86 79
0000c0 ed e8 fe de f8 19 b2 fd 03 21 ae 1f eb d7 af dc
       -19 -24 -2 -34 -8 25 -78 -3 3 33 -82 31 -21 -41 -81 -36
0000d0 1d dd d1 12 11 ee b7 1a 05 0a a9 d1 f4 1d 96 d8
       29 -35 -47 18 17 -18 -73 26 5 10 -87 -47 -12 29 -106 -40
0000e0 0a 07 24 c7 9b e0 c2 e0 b6 ad 8c 06 ce 05 ec 7f
       10 7 36 -57 -101 -32 -62 -32 -74 -83 -116 6 -50 5 -20 127
0000f0 e2 13 1e c8 d3 03 43 cc 26 1e 42 29 09 12 e0 9a
       -30 19 30 -56 -45 3 67 -52 38 30 66 41 9 18 -32 -102

tfl.pseudo_qconst15 i1 [1, 11, 1, 32]
000000 36 81 7f f5 5c 60 81 fe b1 19 11 e9 c4 eb ce 06
       54 -127 127 -11 92 96 -127 -2 -79 25 17 -23 -60 -21 -50 6
000010 9e ef 81 81 92 81 86 c6 ee 03 02 7f 4e c5 fb ac
       -98 -17 -127 -127 -110 -127 -122 -58 -18 3 2 127 78 -59 -5 -84
000020 56 e3 f3 44 5e 26 b3 ed c3 7f 2b 9f 9b 42 dd e2
       86 -29 -13 68 94 38 -77 -19 -61 127 43 -97 -101 66 -35 -30
000030 81 2c ce 91 86 97 9c 9d bb 4c f1 1e 58 81 74 0a
       -127 44 -50 -111 -122 -105 -100 -99 -69 76 -15 30 88 -127 116 10
000040 6c c2 e6 50 4e 60 aa 21 d7 20 04 06 83 0b ec da
       108 -62 -26 80 78 96 -86 33 -41 32 4 6 -125 11 -20 -38
000050 97 38 f3 9a 81 ef ae 81 a3 7a 1f 40 7f c4 cb 6f
       -105 56 -13 -102 -127 -17 -82 -127 -93 122 31 64 127 -60 -53 111
000060 75 11 41 13 7f 71 d5 e1 d6 7a d1 fb 97 0e d5 e9
       117 17 65 19 127 113 -43 -31 -42 122 -47 -5 -105 14 -43 -23
000070 f2 13 15 f0 a2 c5 d9 a4 c2 7f 11 e6 5c b2 b4 37
       -14 19 21 -16 -94 -59 -39 -92 -62 127 17 -26 92 -78 -76 55
000080 31 fb 0f 0b 7a 77 d0 e6 04 12 d3 7f b4 03 ce de
       49 -5 15 11 122 119 -48 -26 4 18 -45 127 -76 3 -50 -34
000090 2d 01 c2 c4 bf ff d9 31 11 45 04 dc 65 e8 c8 03
       45 1 -62 -60 -65 -1 -39 49 17 69 4 -36 101 -24 -56 3
0000a0 12 19 5b b7 55 7f a3 81 13 b7 12 7c be 2b d7 ad
       18 25 91 -73 85 127 -93 -127 19 -73 18 124 -66 43 -41 -83
0000b0 22 e8 ef 01 b9 f0 81 12 3a ec dc 40 cf 2c 81 f5
       34 -24 -17 1 -71 -16 -127 18 58 -20 -36 64 -49 44 -127 -11
0000c0 58 ff f9 1c 2a 09 ed 01 3d 88 d6 6f 50 07 03 d8
       88 -1 -7 28 42 9 -19 1 61 -120 -42 111 80 7 3 -40
0000d0 2b 81 eb 29 ed f8 cb 45 14 b5 d4 49 99 52 b5 20
       43 -127 -21 41 -19 -8 -53 69 20 -75 -44 73 -103 82 -75 32
0000e0 0f c7 8f 9b 66 14 15 b3 59 2b 50 31 64 21 13 ce
       15 -57 -113 -101 102 20 21 -77 89 43 80 49 100 33 19 -50
0000f0 2e b6 de 44 f3 fb 9c fe cc 84 cb d8 8d 48 a9 7f
       46 -74 -34 68 -13 -5 -100 -2 -52 -124 -53 -40 -115 72 -87 127

tfl.pseudo_qconst17 i1 [1, 7, 1, 32]
000000 16 6a 81 16 f4 a4 af 13 7f b6 2b d7 42 51 76 98
       22 106 -127 22 -12 -92 -81 19 127 -74 43 -41 66 81 118 -104
000010 7f 66 97 81 1f 7f 81 f5 aa 59 6e 96 c4 5d e8 0d
       127 102 -105 -127 31 127 -127 -11 -86 89 110 -106 -60 93 -24 13
000020 04 53 d6 23 15 c3 18 81 39 30 f2 98 63 e3 37 ea
       4 83 -42 35 21 -61 24 -127 57 48 -14 -104 99 -29 55 -22
000030 0b 7c 0f 9f f7 fb de 23 79 43 20 d5 81 6e a7 27
       11 124 15 -97 -9 -5 -34 35 121 67 32 -43 -127 110 -89 39
000040 02 32 dc c8 f0 2e f2 d7 21 e9 05 db 7f 1b 37 3f
       2 50 -36 -56 -16 46 -14 -41 33 -23 5 -37 127 27 55 63
000050 a9 3c 1a 84 0d 7a f5 dd 2a dc 81 c9 a7 64 81 2b
       -87 60 26 -124 13 122 -11 -35 42 -36 -127 -55 -89 100 -127 43
000060 81 e9 09 cd f5 7f 4f a2 41 d9 fd 4d 62 d8 1b fa
       -127 -23 9 -51 -11 127 79 -94 65 -39 -3 77 98 -40 27 -6
000070 97 b0 45 9d d6 23 ae 1f 72 2e 85 14 00 7f b5 06
       -105 -80 69 -99 -42 35 -82 31 114 46 -123 20 0 127 -75 6
000080 83 8f e1 da 9c 5f fe 2c a9 4c bf 77 3c ab 0f 71
       -125 -113 -31 -38 -100 95 -2 44 -87 76 -65 119 60 -85 15 113
000090 b9 b0 7f 93 b7 b9 f0 1c db b5 b6 fe 5b 1b 8a 36
       -71 -80 127 -109 -73 -71 -16 28 -37 -75 -74 -2 91 27 -118 54
0000a0 3b 81 1e 03 81 00 7f ed f7 71 b0 14 10 a3 09 12
       59 -127 30 3 -127 0 127 -19 -9 113 -80 20 16 -93 9 18
0000b0 1d 81 47 1e 81 d5 c4 81 24 ad 0d 66 7c 33 bd 55
       29 -127 71 30 -127 -43 -60 -127 36 -83 13 102 124 51 -67 85
0000c0 a9 a8 41 7f 8b 2c 48 0a 42 7f 7f 7f f3 81 81 7f
       -87 -88 65 127 -117 44 72 10 66 127 127 127 -13 -127 -127 127
0000d0 dd 97 db 1f a2 d5 da e5 7f 81 18 7f 71 07 e6 7f
       -35 -105 -37 31 -94 -43 -38 -27 127 -127 24 127 113 7 -26 127

tfl.pseudo_qconst19 i1 [64, 1, 1, 32]
000000 30 47 59 29 42 22 ed 24 f9 33 03 8f 7f 3a 5a 19
       48 71 89 41 66 34 -19 36 -7 51 3 -113 127 58 90 25
000010 08 e3 58 11 1f 57 d1 05 22 14 ee 3a c6 cc a3 06
       8 -29 88 17 31 87 -47 5 34 20 -18 58 -58 -52 -93 6
000020 ea a0 04 2e 25 e9 13 ee ff e3 71 7f dc 20 18 fc
       -22 -96 4 46 37 -23 19 -18 -1 -29 113 127 -36 32 24 -4
000030 18 cc 4f 21 29 ec 12 b6 ef 3e 0f fa b3 17 29 fd
       24 -52 79 33 41 -20 18 -74 -17 62 15 -6 -77 23 41 -3
000040 9a a5 55 27 9e 39 98 ae df 3c c1 ea a9 30 77 41
       -102 -91 85 39 -98 57 -104 -82 -33 60 -63 -22 -87 48 119 65
000050 e0 2d 9b 1f d3 d5 7f 15 e8 d8 47 6a 01 f8 42 ec
       -32 45 -101 31 -45 -43 127 21 -24 -40 71 106 1 -8 66 -20
000060 01 25 c8 5e 2c 13 ba ca 7f 13 07 cd 3a 3b 13 08
       1 37 -56 94 44 19 -70 -54 127 19 7 -51 58 59 19 8
000070 31 32 ce 5d ff 3e 1f 0b e2 15 50 f6 74 ef 4f 54
       49 50 -50 93 -1 62 31 11 -30 21 80 -10 116 -17 79 84
000080 da dd 39 db 17 b9 cb d9 83 c5 11 ed f6 ed dd 47
       -38 -35 57 -37 23 -71 -53 -39 -125 -59 17 -19 -10 -19 -35 71
000090 47 ff 3e 2d e5 d0 e6 0d 39 b2 a4 36 49 15 7f d7
       71 -1 62 45 -27 -48 -26 13 57 -78 -92 54 73 21 127 -41
0000a0 f9 27 aa 46 3b 6d 28 e9 ed c3 35 24 cf 11 fc e0
       -7 39 -86 70 59 109 40 -23 -19 -61 53 36 -49 17 -4 -32
0000b0 c0 b3 c6 3e f0 fe 7f ca d7 7b 27 1f a3 21 cb 12
       -64 -77 -58 62 -16 -2 127 -54 -41 123 39 31 -93 33 -53 18
0000c0 35 e4 d2 2d ec c2 f5 68 02 ed d5 ca f1 4f ff f3
       53 -28 -46 45 -20 -62 -11 104 2 -19 -43 -54 -15 79 -1 -13
0000d0 fc dc e9 0f 0d d1 d7 f7 21 af 49 e0 f9 f4 7f da
       -4 -36 -23 15 13 -47 -41 -9 33 -81 73 -32 -7 -12 127 -38
0000e0 e9 25 0b 3d 0a 2e 02 e8 6e f4 5e 01 7f f5 ed 10
       -23 37 11 61 10 46 2 -24 110 -12 94 1 127 -11 -19 16
0000f0 1b 58 1f 2b ff f7 59 14 f4 03 e2 17 da f5 27 c8
       27 88 31 43 -1 -9 89 20 -12 3 -30 23 -38 -11 39 -56

tfl.pseudo_qconst21 i1 [1, 5, 1, 32]
000000 7f ef 2f b3 7f f2 03 d7 f4 81 34 3a 81 18 3f 55
       127 -17 47 -77 127 -14 3 -41 -12 -127 52 58 -127 24 63 85
000010 dc 5b 41 a9 d5 81 09 7f 3f 83 4c 04 df 00 0a 51
       -36 91 65 -87 -43 -127 9 127 63 -125 76 4 -33 0 10 81
000020 5b d3 cf 61 5f 84 7f d8 15 8c 49 7f 8d ff 7f 7f
       91 -45 -49 97 95 -124 127 -40 21 -116 73 127 -115 -1 127 127
000030 06 3b a8 81 f7 ab 4c 75 1e 29 81 b7 1b fa 72 65
       6 59 -88 -127 -9 -85 76 117 30 41 -127 -73 27 -6 114 101
000040 1c dc 5a 7f 11 1d c2 7f 21 03 4b 75 e7 c8 62 3f
       28 -36 90 127 17 29 -62 127 33 3 75 117 -25 -56 98 63
000050 65 ed ec ae 7f 1c 06 4d d7 31 87 99 12 5f 66 83
       101 -19 -20 -82 127 28 6 77 -41 49 -121 -103 18 95 102 -125
000060 33 00 f5 45 57 06 eb 52 b8 c1 7e 3c 6a 1e c0 2f
       51 0 -11 69 87 6 -21 82 -72 -63 126 60 106 30 -64 47
000070 ac 32 5b ba 76 20 af ec 81 74 d5 27 81 7f 7f 81
       -84 50 91 -70 118 32 -81 -20 -127 116 -43 39 -127 127 127 -127
000080 1d 7f 81 74 30 7f 26 ef 81 9d 7f 06 40 81 95 cb
       29 127 -127 116 48 127 38 -17 -127 -99 127 6 64 -127 -107 -53
000090 81 7f 7f c9 ed 6d 81 fb 94 7f 14 81 b0 30 7d 41
       -127 127 127 -55 -19 109 -127 -5 -108 127 20 -127 -80 48 125 65

tfl.pseudo_qconst23 i1 [32, 5, 1, 40]
000000 bb 1c c6 08 08 3c 1c 4a 2a 44 1d 35 f7 22 fe f6
       -69 28 -58 8 8 60 28 74 42 68 29 53 -9 34 -2 -10
000010 d3 0b dd 2c 01 3b f3 6a 29 5b 16 2e eb 06 ef 02
       -45 11 -35 44 1 59 -13 106 41 91 22 46 -21 6 -17 2
000020 ac c4 b8 25 cd ea 95 18 e2 05 bf e7 43 21 1b 0a
       -84 -60 -72 37 -51 -22 -107 24 -30 5 -65 -25 67 33 27 10
000030 f6 45 13 ff 23 1a 0e 21 cc 03 db 14 08 41 ff 61
       -10 69 19 -1 35 26 14 33 -52 3 -37 20 8 65 -1 97
000040 0a 60 e8 1f 0c 18 cc 0d c7 ec 81 13 c0 17 be df
       10 96 -24 31 12 24 -52 13 -57 -20 -127 19 -64 23 -66 -33
000050 d8 e6 d9 15 13 30 18 0e 2f 32 25 16 1f 31 e7 ed
       -40 -26 -39 21 19 48 24 14 47 50 37 22 31 49 -25 -19
000060 ea 16 d3 fa 29 27 02 7e 2d 4e ee 2d 02 fc 00 28
       -22 22 -45 -6 41 39 2 126 45 78 -18 45 2 -4 0 40
000070 d3 c1 88 ec a2 1e 9e fa b1 e4 e0 f5 20 32 2e 27
       -45 -63 -120 -20 -94 30 -98 -6 -79 -28 -32 -11 32 50 46 39
000080 2d 2b fe 11 0e fe 02 0d d7 2e 03 09 11 32 02 76
       45 43 -2 17 14 -2 2 13 -41 46 3 9 17 50 2 118
000090 f9 4c d9 35 12 0d 08 1e d2 dd 81 eb b8 27 8e 09
       -7 76 -39 53 18 13 8 30 -46 -35 -127 -21 -72 39 -114 9
0000a0 a3 11 ce f7 26 0e 15 40 18 f3 23 2e f8 f7 03 08
       -93 17 -50 -9 38 14 21 64 24 -13 35 46 -8 -9 3 8
0000b0 ea 38 df 0f 0f 07 09 58 0c 48 17 16 fd 18 f9 14
       -22 56 -33 15 15 7 9 88 12 72 23 22 -3 24 -7 20
0000c0 af cc b7 0d a3 fd a5 19 0a 16 e9 15 ed d6 cf f9
       -81 -52 -73 13 -93 -3 -91 25 10 22 -23 21 -19 -42 -49 -7
0000d0 08 ee e5 31 f1 16 19 03 12 16 05 0d 09 f4 0e d5
       8 -18 -27 49 -15 22 25 3 18 22 5 13 9 -12 14 -43
0000e0 fe dc f7 fc f9 2a 22 ef fc f3 d3 fa d1 fb 0c 20
       -2 -36 -9 -4 -7 42 34 -17 -4 -13 -45 -6 -47 -5 12 32
0000f0 11 09 f0 22 e2 d9 ce 14 fc f6 03 24 f4 25 21 08
       17 9 -16 34 -30 -39 -50 20 -4 -10 3 36 -12 37 33 8

tfl.pseudo_qconst24 i1 [1, 14, 1, 64] scale=0.037736807 zero_point=-128
000000 80 80 80 80 80 80 80 80 80 80 80 80 80 80 80 80
       0.0 0.0 0.0 0.0 0.0 0.0 0.0 0.0 0.0 0.0 0.0 0.0 0.0 0.0 0.0 0.0
000010 80 80 80 80 80 80 80 80 80 80 80 80 80 80 80 80
       0.0 0.0 0.0 0.0 0.0 0.0 0.0 0.0 0.0 0.0 0.0 0.0 0.0 0.0 0.0 0.0
000020 80 80 80 80 80 80 80 80 80 80 80 80 80 80 80 80
       0.0 0.0 0.0 0.0 0.0 0.0 0.0 0.0 0.0 0.0 0.0 0.0 0.0 0.0 0.0 0.0
000030 80 80 80 80 80 80 80 80 80 80 80 80 80 80 80 80
       0.0 0.0 0.0 0.0 0.0 0.0 0.0 0.0 0.0 0.0 0.0 0.0 0.0 0.0 0.0 0.0
000040 80 80 80 80 80 80 80 80 80 80 80 80 80 80 80 80
       0.0 0.0 0.0 0.0 0.0 0.0 0.0 0.0 0.0 0.0 0.0 0.0 0.0 0.0 0.0 0.0
000050 80 80 80 80 80 80 80 80 80 80 80 80 80 80 80 80
       0.0 0.0 0.0 0.0 0.0 0.0 0.0 0.0 0.0 0.0 0.0 0.0 0.0 0.0 0.0 0.0
000060 80 80 80 80 80 80 80 80 80 80 80 80 80 80 80 80
       0.0 0.0 0.0 0.0 0.0 0.0 0.0 0.0 0.0 0.0 0.0 0.0 0.0 0.0 0.0 0.0
000070 80 80 80 80 80 80 80 80 80 80 80 80 80 80 80 80
       0.0 0.0 0.0 0.0 0.0 0.0 0.0 0.0 0.0 0.0 0.0 0.0 0.0 0.0 0.0 0.0
000080 80 80 80 80 80 80 80 80 80 80 80 80 80 80 80 80
       0.0 0.0 0.0 0.0 0.0 0.0 0.0 0.0 0.0 0.0 0.0 0.0 0.0 0.0 0.0 0.0
000090 80 80 80 80 80 80 80 80 80 80 80 80 80 80 80 80
       0.0 0.0 0.0 0.0 0.0 0.0 0.0 0.0 0.0 0.0 0.0 0.0 0.0 0.0 0.0 0.0
0000a0 80 80 80 80 80 80 80 80 80 80 80 80 80 80 80 80
       0.0 0.0 0.0 0.0 0.0 0.0 0.0 0.0 0.0 0.0 0.0 0.0 0.0 0.0 0.0 0.0
0000b0 80 80 80 80 80 80 80 80 80 80 80 80 80 80 80 80
       0.0 0.0 0.0 0.0 0.0 0.0 0.0 0.0 0.0 0.0 0.0 0.0 0.0 0.0 0.0 0.0
0000c0 80 80 80 80 80 80 80 80 80 80 80 80 80 80 80 80
       0.0 0.0 0.0 0.0 0.0 0.0 0.0 0.0 0.0 0.0 0.0 0.0 0.0 0.0 0.0 0.0
0000d0 80 80 80 80 80 80 80 80 80 80 80 80 80 80 80 80
       0.0 0.0 0.0 0.0 0.0 0.0 0.0 0.0 0.0 0.0 0.0 0.0 0.0 0.0 0.0 0.0
0000e0 80 80 80 80 80 80 80 80 80 80 80 80 80 80 80 80
       0.0 0.0 0.0 0.0 0.0 0.0 0.0 0.0 0.0 0.0 0.0 0.0 0.0 0.0 0.0 0.0
0000f0 80 80 80 80 80 80 80 80 80 80 80 80 80 80 80 80
       0.0 0.0 0.0 0.0 0.0 0.0 0.0 0.0 0.0 0.0 0.0 0.0 0.0 0.0 0.0 0.0

tfl.pseudo_qconst25 i1 [1, 10, 1, 64] scale=0.04716924 zero_point=-128
000000 80 80 80 80 80 80 80 80 80 80 80 80 80 80 80 80
       0.0 0.0 0.0 0.0 0.0 0.0 0.0 0.0 0.0 0.0 0.0 0.0 0.0 0.0 0.0 0.0
000010 80 80 80 80 80 80 80 80 80 80 80 80 80 80 80 80
       0.0 0.0 0.0 0.0 0.0 0.0 0.0 0.0 0.0 0.0 0.0 0.0 0.0 0.0 0.0 0.0
000020 80 80 80 80 80 80 80 80 80 80 80 80 80 80 80 80
       0.0 0.0 0.0 0.0 0.0 0.0 0.0 0.0 0.0 0.0 0.0 0.0 0.0 0.0 0.0 0.0
000030 80 80 80 80 80 80 80 80 80 80 80 80 80 80 80 80
       0.0 0.0 0.0 0.0 0.0 0.0 0.0 0.0 0.0 0.0 0.0 0.0 0.0 0.0 0.0 0.0
000040 80 80 80 80 80 80 80 80 80 80 80 80 80 80 80 80
       0.0 0.0 0.0 0.0 0.0 0.0 0.0 0.0 0.0 0.0 0.0 0.0 0.0 0.0 0.0 0.0
000050 80 80 80 80 80 80 80 80 80 80 80 80 80 80 80 80
       0.0 0.0 0.0 0.0 0.0 0.0 0.0 0.0 0.0 0.0 0.0 0.0 0.0 0.0 0.0 0.0
000060 80 80 80 80 80 80 80 80 80 80 80 80 80 80 80 80
       0.0 0.0 0.0 0.0 0.0 0.0 0.0 0.0 0.0 0.0 0.0 0.0 0.0 0.0 0.0 0.0
000070 80 80 80 80 80 80 80 80 80 80 80 80 80 80 80 80
       0.0 0.0 0.0 0.0 0.0 0.0 0.0 0.0 0.0 0.0 0.0 0.0 0.0 0.0 0.0 0.0
000080 80 80 80 80 80 80 80 80 80 80 80 80 80 80 80 80
       0.0 0.0 0.0 0.0 0.0 0.0 0.0 0.0 0.0 0.0 0.0 0.0 0.0 0.0 0.0 0.0
000090 80 80 80 80 80 80 80 80 80 80 80 80 80 80 80 80
       0.0 0.0 0.0 0.0 0.0 0.0 0.0 0.0 0.0 0.0 0.0 0.0 0.0 0.0 0.0 0.0
0000a0 80 80 80 80 80 80 80 80 80 80 80 80 80 80 80 80
       0.0 0.0 0.0 0.0 0.0 0.0 0.0 0.0 0.0 0.0 0.0 0.0 0.0 0.0 0.0 0.0
0000b0 80 80 80 80 80 80 80 80 80 80 80 80 80 80 80 80
       0.0 0.0 0.0 0.0 0.0 0.0 0.0 0.0 0.0 0.0 0.0 0.0 0.0 0.0 0.0 0.0
0000c0 80 80 80 80 80 80 80 80 80 80 80 80 80 80 80 80
       0.0 0.0 0.0 0.0 0.0 0.0 0.0 0.0 0.0 0.0 0.0 0.0 0.0 0.0 0.0 0.0
0000d0 80 80 80 80 80 80 80 80 80 80 80 80 80 80 80 80
       0.0 0.0 0.0 0.0 0.0 0.0 0.0 0.0 0.0 0.0 0.0 0.0 0.0 0.0 0.0 0.0
0000e0 80 80 80 80 80 80 80 80 80 80 80 80 80 80 80 80
       0.0 0.0 0.0 0.0 0.0 0.0 0.0 0.0 0.0 0.0 0.0 0.0 0.0 0.0 0.0 0.0
0000f0 80 80 80 80 80 80 80 80 80 80 80 80 80 80 80 80
       0.0 0.0 0.0 0.0 0.0 0.0 0.0 0.0 0.0 0.0 0.0 0.0 0.0 0.0 0.0 0.0

tfl.pseudo_qconst26 i1 [1, 4, 1, 32] scale=1.7170352 zero_point=-128
000000 80 80 80 80 80 80 80 80 80 80 80 80 80 80 80 80
       0.0 0.0 0.0 0.0 0.0 0.0 0.0 0.0 0.0 0.0 0.0 0.0 0.0 0.0 0.0 0.0
000010 80 80 80 80 80 80 80 80 80 80 80 80 80 80 80 80
       0.0 0.0 0.0 0.0 0.0 0.0 0.0 0.0 0.0 0.0 0.0 0.0 0.0 0.0 0.0 0.0
000020 80 80 80 80 80 80 80 80 80 80 80 80 80 80 80 80
       0.0 0.0 0.0 0.0 0.0 0.0 0.0 0.0 0.0 0.0 0.0 0.0 0.0 0.0 0.0 0.0
000030 80 80 80 80 80 80 80 80 80 80 80 80 80 80 80 80
       0.0 0.0 0.0 0.0 0.0 0.0 0.0 0.0 0.0 0.0 0.0 0.0 0.0 0.0 0.0 0.0
000040 80 80 80 80 80 80 80 80 80 80 80 80 80 80 80 80
       0.0 0.0 0.0 0.0 0.0 0.0 0.0 0.0 0.0 0.0 0.0 0.0 0.0 0.0 0.0 0.0
000050 80 80 80 80 80 80 80 80 80 80 80 80 80 80 80 80
       0.0 0.0 0.0 0.0 0.0 0.0 0.0 0.0 0.0 0.0 0.0 0.0 0.0 0.0 0.0 0.0
000060 80 80 80 80 80 80 80 80 80 80 80 80 80 80 80 80
       0.0 0.0 0.0 0.0 0.0 0.0 0.0 0.0 0.0 0.0 0.0 0.0 0.0 0.0 0.0 0.0
000070 80 80 80 80 80 80 80 80 80 80 80 80 80 80 80 80
       0.0 0.0 0.0 0.0 0.0 0.0 0.0 0.0 0.0 0.0 0.0 0.0 0.0 0.0 0.0 0.0

tfl.pseudo_qconst27 i1 [1, 3, 1, 40] scale=0.101960786 zero_point=-128
000000 80 80 80 80 80 80 80 80 80 80 80 80 80 80 80 80
       0.0 0.0 0.0 0.0 0.0 0.0 0.0 0.0 0.0 0.0 0.0 0.0 0.0 0.0 0.0 0.0
000010 80 80 80 80 80 80 80 80 80 80 80 80 80 80 80 80
       0.0 0.0 0.0 0.0 0.0 0.0 0.0 0.0 0.0 0.0 0.0 0.0 0.0 0.0 0.0 0.0
000020 80 80 80 80 80 80 80 80 80 80 80 80 80 80 80 80
       0.0 0.0 0.0 0.0 0.0 0.0 0.0 0.0 0.0 0.0 0.0 0.0 0.0 0.0 0.0 0.0
000030 80 80 80 80 80 80 80 80 80 80 80 80 80 80 80 80
       0.0 0.0 0.0 0.0 0.0 0.0 0.0 0.0 0.0 0.0 0.0 0.0 0.0 0.0 0.0 0.0
000040 80 80 80 80 80 80 80 80 80 80 80 80 80 80 80 80
       0.0 0.0 0.0 0.0 0.0 0.0 0.0 0.0 0.0 0.0 0.0 0.0 0.0 0.0 0.0 0.0
000050 80 80 80 80 80 80 80 80 80 80 80 80 80 80 80 80
       0.0 0.0 0.0 0.0 0.0 0.0 0.0 0.0 0.0 0.0 0.0 0.0 0.0 0.0 0.0 0.0
000060 80 80 80 80 80 80 80 80 80 80 80 80 80 80 80 80
       0.0 0.0 0.0 0.0 0.0 0.0 0.0 0.0 0.0 0.0 0.0 0.0 0.0 0.0 0.0 0.0
000070 80 80 80 80 80 80 80 80
       0.0 0.0 0.0 0.0 0.0 0.0 0.0 0.0

tfl.pseudo_qconst28 i1 [1, 36, 1, 64] scale=0.019256376 zero_point=-128
000000 80 80 80 80 80 80 80 80 80 80 80 80 80 80 80 80
       0.0 0.0 0.0 0.0 0.0 0.0 0.0 0.0 0.0 0.0 0.0 0.0 0.0 0.0 0.0 0.0
000010 80 80 80 80 80 80 80 80 80 80 80 80 80 80 80 80
       0.0 0.0 0.0 0.0 0.0 0.0 0.0 0.0 0.0 0.0 0.0 0.0 0.0 0.0 0.0 0.0
000020 80 80 80 80 80 80 80 80 80 80 80 80 80 80 80 80
       0.0 0.0 0.0 0.0 0.0 0.0 0.0 0.0 0.0 0.0 0.0 0.0 0.0 0.0 0.0 0.0
000030 80 80 80 80 80 80 80 80 80 80 80 80 80 80 80 80
       0.0 0.0 0.0 0.0 0.0 0.0 0.0 0.0 0.0 0.0 0.0 0.0 0.0 0.0 0.0 0.0
000040 80 80 80 80 80 80 80 80 80 80 80 80 80 80 80 80
       0.0 0.0 0.0 0.0 0.0 0.0 0.0 0.0 0.0 0.0 0.0 0.0 0.0 0.0 0.0 0.0
000050 80 80 80 80 80 80 80 80 80 80 80 80 80 80 80 80
       0.0 0.0 0.0 0.0 0.0 0.0 0.0 0.0 0.0 0.0 0.0 0.0 0.0 0.0 0.0 0.0
000060 80 80 80 80 80 80 80 80 80 80 80 80 80 80 80 80
       0.0 0.0 0.0 0.0 0.0 0.0 0.0 0.0 0.0 0.0 0.0 0.0 0.0 0.0 0.0 0.0
000070 80 80 80 80 80 80 80 80 80 80 80 80 80 80 80 80
       0.0 0.0 0.0 0.0 0.0 0.0 0.0 0.0 0.0 0.0 0.0 0.0 0.0 0.0 0.0 0.0
000080 80 80 80 80 80 80 80 80 80 80 80 80 80 80 80 80
       0.0 0.0 0.0 0.0 0.0 0.0 0.0 0.0 0.0 0.0 0.0 0.0 0.0 0.0 0.0 0.0
000090 80 80 80 80 80 80 80 80 80 80 80 80 80 80 80 80
       0.0 0.0 0.0 0.0 0.0 0.0 0.0 0.0 0.0 0.0 0.0 0.0 0.0 0.0 0.0 0.0
0000a0 80 80 80 80 80 80 80 80 80 80 80 80 80 80 80 80
       0.0 0.0 0.0 0.0 0.0 0.0 0.0 0.0 0.0 0.0 0.0 0.0 0.0 0.0 0.0 0.0
0000b0 80 80 80 80 80 80 80 80 80 80 80 80 80 80 80 80
       0.0 0.0 0.0 0.0 0.0 0.0 0.0 0.0 0.0 0.0 0.0 0.0 0.0 0.0 0.0 0.0
0000c0 80 80 80 80 80 80 80 80 80 80 80 80 80 80 80 80
       0.0 0.0 0.0 0.0 0.0 0.0 0.0 0.0 0.0 0.0 0.0 0.0 0.0 0.0 0.0 0.0
0000d0 80 80 80 80 80 80 80 80 80 80 80 80 80 80 80 80
       0.0 0.0 0.0 0.0 0.0 0.0 0.0 0.0 0.0 0.0 0.0 0.0 0.0 0.0 0.0 0.0
0000e0 80 80 80 80 80 80 80 80 80 80 80 80 80 80 80 80
       0.0 0.0 0.0 0.0 0.0 0.0 0.0 0.0 0.0 0.0 0.0 0.0 0.0 0.0 0.0 0.0
0000f0 80 80 80 80 80 80 80 80 80 80 80 80 80 80 80 80
       0.0 0.0 0.0 0.0 0.0 0.0 0.0 0.0 0.0 0.0 0.0 0.0 0.0 0.0 0.0 0.0

tfl.pseudo_qconst29 i1 [1, 22, 1, 64] scale=0.045797102 zero_point=-128
000000 80 80 80 80 80 80 80 80 80 80 80 80 80 80 80 80
       0.0 0.0 0.0 0.0 0.0 0.0 0.0 0.0 0.0 0.0 0.0 0.0 0.0 0.0 0.0 0.0
000010 80 80 80 80 80 80 80 80 80 80 80 80 80 80 80 80
       0.0 0.0 0.0 0.0 0.0 0.0 0.0 0.0 0.0 0.0 0.0 0.0 0.0 0.0 0.0 0.0
000020 80 80 80 80 80 80 80 80 80 80 80 80 80 80 80 80
       0.0 0.0 0.0 0.0 0.0 0.0 0.0 0.0 0.0 0.0 0.0 0.0 0.0 0.0 0.0 0.0
000030 80 80 80 80 80 80 80 80 80 80 80 80 80 80 80 80
       0.0 0.0 0.0 0.0 0.0 0.0 0.0 0.0 0.0 0.0 0.0 0.0 0.0 0.0 0.0 0.0
000040 80 80 80 80 80 80 80 80 80 80 80 80 80 80 80 80
       0.0 0.0 0.0 0.0 0.0 0.0 0.0 0.0 0.0 0.0 0.0 0.0 0.0 0.0 0.0 0.0
000050 80 80 80 80 80 80 80 80 80 80 80 80 80 80 80 80
       0.0 0.0 0.0 0.0 0.0 0.0 0.0 0.0 0.0 0.0 0.0 0.0 0.0 0.0 0.0 0.0
000060 80 80 80 80 80 80 80 80 80 80 80 80 80 80 80 80
       0.0 0.0 0.0 0.0 0.0 0.0 0.0 0.0 0.0 0.0 0.0 0.0 0.0 0.0 0.0 0.0
000070 80 80 80 80 80 80 80 80 80 80 80 80 80 80 80 80
       0.0 0.0 0.0 0.0 0.0 0.0 0.0 0.0 0.0 0.0 0.0 0.0 0.0 0.0 0.0 0.0
000080 80 80 80 80 80 80 80 80 80 80 80 80 80 80 80 80
       0.0 0.0 0.0 0.0 0.0 0.0 0.0 0.0 0.0 0.0 0.0 0.0 0.0 0.0 0.0 0.0
000090 80 80 80 80 80 80 80 80 80 80 80 80 80 80 80 80
       0.0 0.0 0.0 0.0 0.0 0.0 0.0 0.0 0.0 0.0 0.0 0.0 0.0 0.0 0.0 0.0
0000a0 80 80 80 80 80 80 80 80 80 80 80 80 80 80 80 80
       0.0 0.0 0.0 0.0 0.0 0.0 0.0 0.0 0.0 0.0 0.0 0.0 0.0 0.0 0.0 0.0
0000b0 80 80 80 80 80 80 80 80 80 80 80 80 80 80 80 80
       0.0 0.0 0.0 0.0 0.0 0.0 0.0 0.0 0.0 0.0 0.0 0.0 0.0 0.0 0.0 0.0
0000c0 80 80 80 80 80 80 80 80 80 80 80 80 80 80 80 80
       0.0 0.0 0.0 0.0 0.0 0.0 0.0 0.0 0.0 0.0 0.0 0.0 0.0 0.0 0.0 0.0
0000d0 80 80 80 80 80 80 80 80 80 80 80 80 80 80 80 80
       0.0 0.0 0.0 0.0 0.0 0.0 0.0 0.0 0.0 0.0 0.0 0.0 0.0 0.0 0.0 0.0
0000e0 80 80 80 80 80 80 80 80 80 80 80 80 80 80 80 80
       0.0 0.0 0.0 0.0 0.0 0.0 0.0 0.0 0.0 0.0 0.0 0.0 0.0 0.0 0.0 0.0
0000f0 80 80 80 80 80 80 80 80 80 80 80 80 80 80 80 80
       0.0 0.0 0.0 0.0 0.0 0.0 0.0 0.0 0.0 0.0 0.0 0.0 0.0 0.0 0.0 0.0
