alisa-child.tflite (tflite, 63544 bytes, 18 tensors)

tfl.pseudo_qconst1 i1 [1, 2368] scale=0.008410258 zero_point=0
00000000: 2df4 f4ed fdf1 d4fa e400 e628 f0f3 fafe
00000010: f3f0 eee1 e0e7 07f6 fb00 f9ff f9eb ddf7
00000020: f5d5 fb03 f3f9 f21e e8f9 f6df f6d8 fde8
00000030: 03d2 e204 edf3 fb05 fa11 fc06 f7ea f30b
00000040: 1c04 fbf7 03fb ebf9 ec0d f719 f9fb f6f3
00000050: f5fd fff0 e2ee 04f4 f4fe 00fb f9f8 edfd
00000060: f9e3 0206 030a 0128 effd 07f4 f3ed fde3
00000070: 12da ea07 02f7 0513 f80a 0101 0af6 fefa
00000080: 16ff 0c06 0af7 f4ff ea13 020f fdf1 eaf0
00000090: f200 05f3 efef 05f0 f0f5 fc04 f2fe ef04
000000a0: f9ed 0204 0517 0926 ec06 0af5 f4f0 0aee
000000b0: 14f4 f6fd 0ff8 0116 fb02 06fc 13ee 09fe
000000c0: 0d02 0d03 0906 f0ff f800 0905 fc04 e8ff
000000d0: e800 fff4 e7e3 06fd fbf8 0807 f0f5 f303
000000e0: 05f4 f9fc 0014 0324 f30b 07f9 f400 07ee
000000f0: 10ee fd08 13ee fc0f f004 0afa 0dfd f8ff
0.37846163 -0.1009231 -0.1009231 -0.15979491 -0.025230775 -0.12615387 -0.37005135 -0.05046155
-0.23548722 0.0 -0.21866672 0.33641034 -0.13456413 -0.10933336 -0.05046155 -0.016820516
-0.10933336 -0.13456413 -0.15138465 -0.26071802 -0.26912826 -0.21025646 0.058871806 -0.084102586
-0.042051293 0.0 -0.058871806 -0.008410258 -0.058871806 -0.17661542 -0.29435903 -0.075692326
-0.09251284 -0.3616411 -0.042051293 0.025230775 -0.10933336 -0.058871806 -0.11774361 0.25230774
-0.2018462 -0.058871806 -0.084102586 -0.2775385 -0.084102586 -0.33641034 -0.025230775 -0.2018462
0.025230775 -0.38687187 -0.25230774 0.033641033 -0.15979491 -0.10933336 -0.042051293 0.042051293
-0.05046155 0.14297439 -0.033641033 0.05046155 -0.075692326 -0.18502568 -0.10933336 0.09251284
0.23548722 0.033641033 -0.042051293 -0.075692326 0.025230775 -0.042051293 -0.17661542 -0.058871806
-0.16820517 0.10933336 -0.075692326 0.21025646 -0.058871806 -0.042051293 -0.084102586 -0.10933336
-0.09251284 -0.025230775 -0.008410258 -0.13456413 -0.25230774 -0.15138465 0.033641033 -0.1009231
-0.1009231 -0.016820516 0.0 -0.042051293 -0.058871806 -0.067282066 -0.15979491 -0.025230775
-0.058871806 -0.24389748 0.016820516 0.05046155 0.025230775 0.084102586 0.008410258 0.33641034
-0.14297439 -0.025230775 0.058871806 -0.1009231 -0.10933336 -0.15979491 -0.025230775 -0.24389748
0.15138465 -0.31958982 -0.18502568 0.058871806 0.016820516 -0.075692326 0.042051293 0.15979491
-0.067282066 0.084102586 0.008410258 0.008410258 0.084102586 -0.084102586 -0.016820516 -0.05046155
0.18502568 -0.008410258 0.1009231 0.05046155 0.084102586 -0.075692326 -0.1009231 -0.008410258
-0.18502568 0.15979491 0.016820516 0.12615387 -0.025230775 -0.12615387 -0.18502568 -0.13456413
-0.11774361 0.0 0.042051293 -0.10933336 -0.14297439 -0.14297439 0.042051293 -0.13456413
-0.13456413 -0.09251284 -0.033641033 0.033641033 -0.11774361 -0.016820516 -0.14297439 0.033641033
-0.058871806 -0.15979491 0.016820516 0.033641033 0.042051293 0.19343594 0.075692326 0.31958982
-0.16820517 0.05046155 0.084102586 -0.09251284 -0.1009231 -0.13456413 0.084102586 -0.15138465
0.16820517 -0.1009231 -0.084102586 -0.025230775 0.12615387 -0.067282066 0.008410258 0.18502568
-0.042051293 0.016820516 0.05046155 -0.033641033 0.15979491 -0.15138465 0.075692326 -0.016820516
0.10933336 0.016820516 0.10933336 0.025230775 0.075692326 0.05046155 -0.13456413 -0.008410258
-0.067282066 0.0 0.075692326 0.042051293 -0.033641033 0.033641033 -0.2018462 -0.008410258
-0.2018462 0.0 -0.008410258 -0.1009231 -0.21025646 -0.24389748 0.05046155 -0.025230775
-0.042051293 -0.067282066 0.067282066 0.058871806 -0.13456413 -0.09251284 -0.10933336 0.025230775
0.042051293 -0.1009231 -0.058871806 -0.033641033 0.0 0.16820517 0.025230775 0.3027693
-0.10933336 0.09251284 0.058871806 -0.058871806 -0.1009231 0.0 0.058871806 -0.15138465
0.13456413 -0.15138465 -0.025230775 0.067282066 0.15979491 -0.15138465 -0.033641033 0.12615387
-0.13456413 0.033641033 0.084102586 -0.05046155 0.10933336 -0.025230775 -0.067282066 -0.008410258

tfl.pseudo_qconst3 i1 [64, 1, 1, 64]
00000000: f3e2 03fe db0a 230f f311 d718 1a47 e9db
00000010: 032f 00f6 e9fd 0447 f907 27c7 4bee 1ad1
00000020: 20e4 e8ec 0c12 21e7 0e7f ebf6 20e1 8b1c
00000030: f20b fee9 f7f0 ea17 ebfd 0c09 dbf9 f0fe
00000040: c905 03d9 c1e7 93d0 4761 b757 8126 3fda
00000050: dbfe 01f6 2e0b 4cfa 1b1c ecbc e511 0701
00000060: 1421 d715 0025 56d5 ea2c e70a 402e 38e6
00000070: ea02 a229 f10f 0807 001c a402 e92b 6156
00000080: b414 3df1 1d86 a4e9 12f2 8417 9809 04d2
00000090: be0e 3c11 44fb 45d7 eefe 06bc eb29 daf4
000000a0: 521b e618 2c28 7f87 c6d4 9ff2 47f7 0dea
000000b0: 2f21 b438 e149 1817 efe2 07f2 d749 3167
000000c0: f624 2d0d b743 27be fc03 6124 da24 7ffc
000000d0: ed35 1527 d83e 00e1 3202 b7b2 af25 cb54
000000e0: 11bc 0536 eb20 e42b c011 defc fa09 c543
000000f0: c2ed cd2b 4c07 eeee 4643 fe02 d6ec 0bd8
-13 -30 3 -2 -37 10 35 15
-13 17 -41 24 26 71 -23 -37
3 47 0 -10 -23 -3 4 71
-7 7 39 -57 75 -18 26 -47
32 -28 -24 -20 12 18 33 -25
14 127 -21 -10 32 -31 -117 28
-14 11 -2 -23 -9 -16 -22 23
-21 -3 12 9 -37 -7 -16 -2
-55 5 3 -39 -63 -25 -109 -48
71 97 -73 87 -127 38 63 -38
-37 -2 1 -10 46 11 76 -6
27 28 -20 -68 -27 17 7 1
20 33 -41 21 0 37 86 -43
-22 44 -25 10 64 46 56 -26
-22 2 -94 41 -15 15 8 7
0 28 -92 2 -23 43 97 86
-76 20 61 -15 29 -122 -92 -23
18 -14 -124 23 -104 9 4 -46
-66 14 60 17 68 -5 69 -41
-18 -2 6 -68 -21 41 -38 -12
82 27 -26 24 44 40 127 -121
-58 -44 -97 -14 71 -9 13 -22
47 33 -76 56 -31 73 24 23
-17 -30 7 -14 -41 73 49 103
-10 36 45 13 -73 67 39 -66
-4 3 97 36 -38 36 127 -4
-19 53 21 39 -40 62 0 -31
50 2 -73 -78 -81 37 -53 84
17 -68 5 54 -21 32 -28 43
-64 17 -34 -4 -6 9 -59 67
-62 -19 -51 43 76 7 -18 -18
70 67 -2 2 -42 -20 11 -40

tfl.pseudo_qconst5 i1 [1, 23, 1, 64]
00000000: 05a9 85e0 5a0f 2a81 4a4c 04d8 2594 7f21
00000010: 84b5 d67f 0447 ae0e 0505 7fd1 81e9 7f07
00000020: e5a7 e647 87a2 5e76 8697 4589 de04 6dd6
00000030: dd7f 1792 fb81 bc41 2d81 0639 897f d2bf
00000040: cabe 8509 5a09 37c4 4a67 d110 2781 660f
00000050: 8191 df78 2859 acfa dec1 6b03 9be7 71f6
00000060: debd d36d a7a9 294f 879c 1589 e1e4 67cc
00000070: df3b 2ba5 f2ad 9549 4398 047f 867b f1e9
00000080: dfe6 97e0 5afe 54e5 2169 c011 218c 530d
00000090: 9ad7 fe4c 303f b70a ddc5 781f d7e1 4e21
000000a0: c2ed d459 99a8 f63b 90be 0f81 c2ea 56d4
000000b0: 093a 23b3 cfbc ab22 109b 127b a75c fde4
000000c0: eae5 b11a 57f8 76e6 0562 d1f4 179a 3413
000000d0: abd9 3934 0332 cdff efd8 6e0b d8df 3711
000000e0: c1fa 9a43 aed5 d30d abd4 119d e1f2 48e4
000000f0: 05f6 34bc e50a af3a fbd7 f953 b91e 14fa
5 -87 -123 -32 90 15 42 -127
74 76 4 -40 37 -108 127 33
-124 -75 -42 127 4 71 -82 14
5 5 127 -47 -127 -23 127 7
-27 -89 -26 71 -121 -94 94 118
-122 -105 69 -119 -34 4 109 -42
-35 127 23 -110 -5 -127 -68 65
45 -127 6 57 -119 127 -46 -65
-54 -66 -123 9 90 9 55 -60
74 103 -47 16 39 -127 102 15
-127 -111 -33 120 40 89 -84 -6
-34 -63 107 3 -101 -25 113 -10
-34 -67 -45 109 -89 -87 41 79
-121 -100 21 -119 -31 -28 103 -52
-33 59 43 -91 -14 -83 -107 73
67 -104 4 127 -122 123 -15 -23
-33 -26 -105 -32 90 -2 84 -27
33 105 -64 17 33 -116 83 13
-102 -41 -2 76 48 63 -73 10
-35 -59 120 31 -41 -31 78 33
-62 -19 -44 89 -103 -88 -10 59
-112 -66 15 -127 -62 -22 86 -44
9 58 35 -77 -49 -68 -85 34
16 -101 18 123 -89 92 -3 -28
-22 -27 -79 26 87 -8 118 -26
5 98 -47 -12 23 -102 52 19
-85 -39 57 52 3 50 -51 -1
-17 -40 110 11 -40 -33 55 17
-63 -6 -102 67 -82 -43 -45 13
-85 -44 17 -99 -31 -14 72 -28
5 -10 52 -68 -27 10 -81 58
-5 -41 -7 83 -71 30 20 -6

tfl.pseudo_qconst7 i1 [64, 1, 1, 64]
00000000: 6710 113a 348a b2e4 33ed 4162 282c b53b
00000010: 377f 0caa e54f f8e6 1284 0872 fa17 0902
00000020: f7d1 cbd6 2d20 d536 20b9 2e95 439d 1e12
00000030: 0ccf fb6a b0e5 1235 3057 c859 0f92 5509
00000040: fff7 d429 e01d 1bfe 080f 1113 1d09 5807
00000050: 2d51 f365 bd34 f538 ebcc 1035 aa3a 3a68
00000060: ad8b da15 3021 2746 d0e0 2a8c 8da8 df06
00000070: edc9 d204 9849 17e7 261a 8152 14e1 3427
00000080: bc2a 0e51 e205 2542 ef38 0aec 3a2d 3600
00000090: 37e5 81fa ed52 f5fe f276 c9e0 fced d221
000000a0: 2833 2b24 33da e11b dfeb 47fb 0af9 e914
000000b0: c8e6 1db0 ff0b a8f7 eaff 0c04 ecf8 4109
000000c0: 4008 2294 43f9 20ec bafd 52e4 0b3c 4256
000000d0: f813 25ba 000c 23fd fccc 16f2 2eb8 f0fe
000000e0: bc26 b602 c71a aa7f 2685 1817 fe26 df1c
000000f0: 1bd6 e569 158f 2bc8 4308 9826 1767 0370
103 16 17 58 52 -118 -78 -28
51 -19 65 98 40 44 -75 59
55 127 12 -86 -27 79 -8 -26
18 -124 8 114 -6 23 9 2
-9 -47 -53 -42 45 32 -43 54
32 -71 46 -107 67 -99 30 18
12 -49 -5 106 -80 -27 18 53
48 87 -56 89 15 -110 85 9
-1 -9 -44 41 -32 29 27 -2
8 15 17 19 29 9 88 7
45 81 -13 101 -67 52 -11 56
-21 -52 16 53 -86 58 58 104
-83 -117 -38 21 48 33 39 70
-48 -32 42 -116 -115 -88 -33 6
-19 -55 -46 4 -104 73 23 -25
38 26 -127 82 20 -31 52 39
-68 42 14 81 -30 5 37 66
-17 56 10 -20 58 45 54 0
55 -27 -127 -6 -19 82 -11 -2
-14 118 -55 -32 -4 -19 -46 33
40 51 43 36 51 -38 -31 27
-33 -21 71 -5 10 -7 -23 20
-56 -26 29 -80 -1 11 -88 -9
-22 -1 12 4 -20 -8 65 9
64 8 34 -108 67 -7 32 -20
-70 -3 82 -28 11 60 66 86
-8 19 37 -70 0 12 35 -3
-4 -52 22 -14 46 -72 -16 -2
-68 38 -74 2 -57 26 -86 127
38 -123 24 23 -2 38 -33 28
27 -42 -27 105 21 -113 43 -56
67 8 -104 38 23 103 3 112

tfl.pseudo_qconst9 i1 [1, 15, 1, 32]
00000000: 4591 63ce 811f 967f 4c85 07bc f476 54a6
00000010: fb81 5b33 0ba8 6c7f da5a 2663 64f8 f544
00000020: 3cb7 3ebf 8306 8e58 6791 e4cf cc7f 4d81
00000030: 0ec5 7ff1 f9d0 7f2b d463 273e 4b33 9d62
00000040: ec81 1de0 a9fa aa4c 2084 e3c7 db7e 6087
00000050: d9db 6d1b cbdc 5d35 157f 5808 7318 cb7f
00000060: 81b2 4a71 a3f0 d63c 48bc 0cdc b250 2a91
00000070: fe1e 3cdb c1e1 f124 336f 27fa 7f1d 865e
00000080: 8ec7 7fd1 9ed0 0028 101c 9d38 c231 3d83
00000090: 101b 08cd bfee 0906 ec65 4800 48d8 8137
000000a0: 10f9 7e70 90cc 3c37 eaf8 9129 b065 32f2
000000b0: 1320 ded5 b8ff f50b 7f17 2de3 4fd7 b113
000000c0: 06ff 366b ccd6 4f47 f6bc c60f b441 4925
000000d0: eee2 e5c0 b2f4 3df1 1afd e2ef 1bd5 0714
000000e0: 112a 5b48 c506 443e ddb1 bb1b e8f3 133c
000000f0: 07ce 3bcc aa08 55fa 2fee c402 3144 360b
69 -111 99 -50 -127 31 -106 127
76 -123 7 -68 -12 118 84 -90
-5 -127 91 51 11 -88 108 127
-38 90 38 99 100 -8 -11 68
60 -73 62 -65 -125 6 -114 88
103 -111 -28 -49 -52 127 77 -127
14 -59 127 -15 -7 -48 127 43
-44 99 39 62 75 51 -99 98
-20 -127 29 -32 -87 -6 -86 76
32 -124 -29 -57 -37 126 96 -121
-39 -37 109 27 -53 -36 93 53
21 127 88 8 115 24 -53 127
-127 -78 74 113 -93 -16 -42 60
72 -68 12 -36 -78 80 42 -111
-2 30 60 -37 -63 -31 -15 36
51 111 39 -6 127 29 -122 94
-114 -57 127 -47 -98 -48 0 40
16 28 -99 56 -62 49 61 -125
16 27 8 -51 -65 -18 9 6
-20 101 72 0 72 -40 -127 55
16 -7 126 112 -112 -52 60 55
-22 -8 -111 41 -80 101 50 -14
19 32 -34 -43 -72 -1 -11 11
127 23 45 -29 79 -41 -79 19
6 -1 54 107 -52 -42 79 71
-10 -68 -58 15 -76 65 73 37
-18 -30 -27 -64 -78 -12 61 -15
26 -3 -30 -17 27 -43 7 20
17 42 91 72 -59 6 68 62
-35 -79 -69 27 -24 -13 19 60
7 -50 59 -52 -86 8 85 -6
47 -18 -60 2 49 68 54 11

tfl.pseudo_qconst11 i1 [1, 9, 1, 32]
00000000: e20f 0cf4 3aa0 32cb 4e10 0d16 0bef 23af
00000010: fa9b 142b 40a6 9b39 8158 e304 39ed fcbe
00000020: c607 f923 2fca 2dbf f9f0 f5da 54e2 32e7
00000030: 0a81 f865 488a 6b3e d659 e338 7fe6 0fcf
00000040: 070a f737 8131 2fbb e7ee ffaa 5ceb 16e1
00000050: f0e5 2007 4781 1041 ba7f 1b37 d4a2 0081
00000060: aebf df2c 8e0c 61fc 810d c6f6 fd45 05c5
00000070: faec 2dd7 efd1 2f4c fb61 31ba dd83 fecb
00000080: a801 d042 fb5e 1efb ce1a c981 2a72 81e4
00000090: 0324 b0cf 8118 fe26 8650 1abd eee8 119f
000000a0: dcce ff35 8d57 cea9 86f7 cba2 057f aad4
000000b0: 0917 b1ea deee 3145 ce65 4dd1 eb0d 1ed5
000000c0: daea c22b 481c e381 f1c7 8b1d 36fa e09f
000000d0: e0de 81b7 a342 3f62 ff7a 2d8a b029 39b8
000000e0: 90b8 b4ec 6396 8195 c991 81f5 1f08 1598
000000f0: c22b a0de 0616 7f43 c175 3881 6e7f 5c06
-30 15 12 -12 58 -96 50 -53
78 16 13 22 11 -17 35 -81
-6 -101 20 43 64 -90 -101 57
-127 88 -29 4 57 -19 -4 -66
-58 7 -7 35 47 -54 45 -65
-7 -16 -11 -38 84 -30 50 -25
10 -127 -8 101 72 -118 107 62
-42 89 -29 56 127 -26 15 -49
7 10 -9 55 -127 49 47 -69
-25 -18 -1 -86 92 -21 22 -31
-16 -27 32 7 71 -127 16 65
-70 127 27 55 -44 -94 0 -127
-82 -65 -33 44 -114 12 97 -4
-127 13 -58 -10 -3 69 5 -59
-6 -20 45 -41 -17 -47 47 76
-5 97 49 -70 -35 -125 -2 -53
-88 1 -48 66 -5 94 30 -5
-50 26 -55 -127 42 114 -127 -28
3 36 -80 -49 -127 24 -2 38
-122 80 26 -67 -18 -24 17 -97
-36 -50 -1 53 -115 87 -50 -87
-122 -9 -53 -94 5 127 -86 -44
9 23 -79 -22 -34 -18 49 69
-50 101 77 -47 -21 13 30 -43
-38 -22 -62 43 72 28 -29 -127
-15 -57 -117 29 54 -6 -32 -97
-32 -34 -127 -73 -93 66 63 98
-1 122 45 -118 -80 41 57 -72
-112 -72 -76 -20 99 -106 -127 -107
-55 -111 -127 -11 31 8 21 -104
-62 43 -96 -34 6 22 127 67
-63 117 56 -127 110 127 92 6

tfl.pseudo_qconst13 i1 [64, 1, 1, 64]
00000000: 462e f6d1 21ff 2c2a 16f9 bdf6 b3e9 1dc6
00000010: 1433 bb3d c8e7 e5e7 7ff4 c332 e715 e024
00000020: b5f7 d310 6ad0 f731 7100 e833 046c fec8
00000030: e5ec cd3c 280a ddd1 d920 e1c8 2001 42b8
00000040: 5296 2c25 4c1f e5ef bed6 4bb8 5bc5 b42a
00000050: ec09 47f8 8bfb f6c9 10e9 916a 06e5 a332
00000060: 0245 0384 e3f4 d566 f17f ff23 0518 e66c
00000070: e23e f2c2 3adf 0711 089c 0e1b 5b1a 2c43
00000080: f3dc e720 22cd c9f4 1f00 27ba 35e4 ca08
00000090: bef0 7de2 bc12 e20a 4fdf ad5b 04cb 81e2
000000a0: 155b dfbf fbff d637 5b02 0453 2019 0227
000000b0: f6ed e3a1 f35d 33e3 4f8b 2f14 11ee f7d8
000000c0: 2410 09f2 d20d edc3 c4db ca0e 20f6 ddef
000000d0: d93a f308 24dd e59f cb0c 23ed f603 393b
000000e0: 65c2 0ce6 e4dc 12af 3903 01f5 1128 ef27
000000f0: 4d05 18f9 f0a6 0320 c7bb 7fd3 3a21 0f38
70 46 -10 -47 33 -1 44 42
22 -7 -67 -10 -77 -23 29 -58
20 51 -69 61 -56 -25 -27 -25
127 -12 -61 50 -25 21 -32 36
-75 -9 -45 16 106 -48 -9 49
113 0 -24 51 4 108 -2 -56
-27 -20 -51 60 40 10 -35 -47
-39 32 -31 -56 32 1 66 -72
82 -106 44 37 76 31 -27 -17
-66 -42 75 -72 91 -59 -76 42
-20 9 71 -8 -117 -5 -10 -55
16 -23 -111 106 6 -27 -93 50
2 69 3 -124 -29 -12 -43 102
-15 127 -1 35 5 24 -26 108
-30 62 -14 -62 58 -33 7 17
8 -100 14 27 91 26 44 67
-13 -36 -25 32 34 -51 -55 -12
31 0 39 -70 53 -28 -54 8
-66 -16 125 -30 -68 18 -30 10
79 -33 -83 91 4 -53 -127 -30
21 91 -33 -65 -5 -1 -42 55
91 2 4 83 32 25 2 39
-10 -19 -29 -95 -13 93 51 -29
79 -117 47 20 17 -18 -9 -40
36 16 9 -14 -46 13 -19 -61
-60 -37 -54 14 32 -10 -35 -17
-39 58 -13 8 36 -35 -27 -97
-53 12 35 -19 -10 3 57 59
101 -62 12 -26 -28 -36 18 -81
57 3 1 -11 17 40 -17 39
77 5 24 -7 -16 -90 3 32
-57 -69 127 -45 58 33 15 56

tfl.pseudo_qconst15 i1 [1, 11, 1, 32]
00000000: 27a9 7335 1688 7ffa 5ef7 8199 c928 005d
00000010: 140d c31f 162c b1d5 137f 81d0 b4d3 29e6
00000020: c081 5644 5c81 4d2c 7f75 9281 971a 235b
00000030: d3ec 0344 e0cb d6b7 fb43 a481 a5a0 16d9
00000040: 81a7 251d 7fcf 257f 5834 aca0 c9f1 f42b
00000050: c704 c57f 04db f6bd dc4b bfc5 ce30 e5bc
00000060: cee3 2a35 71e4 1c7e 2274 05ad cb1d b637
00000070: 0dca 2b73 0d81 9dc6 e561 f250 e6a0 11be
00000080: 07da f72f 0301 193a ea57 3eab e7c7 8101
00000090: dcc1 1e4f d999 91e9 d114 ff5b 9e5f 02e1
000000a0: 09f8 a52f ef50 040a 7247 67c0 2fbb 9ea2
000000b0: fce0 7f30 d9b5 a781 2af8 f429 9172 06dc
000000c0: 22c6 ab35 f051 53f6 70a8 7af5 65d5 e081
000000d0: 0ff8 6f15 059c b7df 0511 1477 8f68 ebfe
000000e0: 2ddd 8121 1f68 1099 58eb 3cf0 4aba 2cae
000000f0: 2001 3761 c8e7 1aeb c2f2 045c 817f e50f
39 -87 115 53 22 -120 127 -6
94 -9 -127 -103 -55 40 0 93
20 13 -61 31 22 44 -79 -43
19 127 -127 -48 -76 -45 41 -26
-64 -127 86 68 92 -127 77 44
127 117 -110 -127 -105 26 35 91
-45 -20 3 68 -32 -53 -42 -73
-5 67 -92 -127 -91 -96 22 -39
-127 -89 37 29 127 -49 37 127
88 52 -84 -96 -55 -15 -12 43
-57 4 -59 127 4 -37 -10 -67
-36 75 -65 -59 -50 48 -27 -68
-50 -29 42 53 113 -28 28 126
34 116 5 -83 -53 29 -74 55
13 -54 43 115 13 -127 -99 -58
-27 97 -14 80 -26 -96 17 -66
7 -38 -9 47 3 1 25 58
-22 87 62 -85 -25 -57 -127 1
-36 -63 30 79 -39 -103 -111 -23
-47 20 -1 91 -98 95 2 -31
9 -8 -91 47 -17 80 4 10
114 71 103 -64 47 -69 -98 -94
-4 -32 127 48 -39 -75 -89 -127
42 -8 -12 41 -111 114 6 -36
34 -58 -85 53 -16 81 83 -10
112 -88 122 -11 101 -43 -32 -127
15 -8 111 21 5 -100 -73 -33
5 17 20 119 -113 104 -21 -2
45 -35 -127 33 31 104 16 -103
88 -21 60 -16 74 -70 44 -82
32 1 55 97 -56 -25 26 -21
-62 -14 4 92 -127 127 -27 15

tfl.pseudo_qconst17 i1 [1, 7, 1, 32]
00000000: ca56 61d5 a01e b817 10e0 174a cfbe e46f
00000010: 4aef 23dd fe0c 8113 25d3 cc6c e102 2f81
00000020: 81e5 4130 9adc cde5 f6c3 0913 aba7 285b
00000030: 5d18 c3c8 b37f ee4f 4103 cd6e 001b ee92
00000040: a342 a3f5 8118 094c d8b2 cafc b281 247f
00000050: 24fd cb28 9f17 bd7f 7f2f e42f 0b0e c2f5
00000060: b8f0 8fc6 afd5 253a 0613 f9f2 a0c6 4a77
00000070: 2728 b96e ccf3 3034 3720 b7e4 ddbe 18e2
00000080: 6850 9c81 b9b2 4b60 e442 b1bf 06bd 2d7b
00000090: ca19 007f 2b95 0036 387f a7b2 c9fc 1d42
000000a0: 5e30 d4ac 8181 2c7f 4be3 e3b4 96dc 696c
000000b0: 816c eb49 7ea2 4be7 1b56 8ead 811d f52d
000000c0: 787f 7f99 8bb7 7f72 7f81 8181 81e0 7fff
000000d0: 9d7f 813a 7ffc 0cd8 f220 8181 937f 7f06
-54 86 97 -43 -96 30 -72 23
16 -32 23 74 -49 -66 -28 111
74 -17 35 -35 -2 12 -127 19
37 -45 -52 108 -31 2 47 -127
-127 -27 65 48 -102 -36 -51 -27
-10 -61 9 19 -85 -89 40 91
93 24 -61 -56 -77 127 -18 79
65 3 -51 110 0 27 -18 -110
-93 66 -93 -11 -127 24 9 76
-40 -78 -54 -4 -78 -127 36 127
36 -3 -53 40 -97 23 -67 127
127 47 -28 47 11 14 -62 -11
-72 -16 -113 -58 -81 -43 37 58
6 19 -7 -14 -96 -58 74 119
39 40 -71 110 -52 -13 48 52
55 32 -73 -28 -35 -66 24 -30
104 80 -100 -127 -71 -78 75 96
-28 66 -79 -65 6 -67 45 123
-54 25 0 127 43 -107 0 54
56 127 -89 -78 -55 -4 29 66
94 48 -44 -84 -127 -127 44 127
75 -29 -29 -76 -106 -36 105 108
-127 108 -21 73 126 -94 75 -25
27 86 -114 -83 -127 29 -11 45
120 127 127 -103 -117 -73 127 114
127 -127 -127 -127 -127 -32 127 -1
-99 127 -127 58 127 -4 12 -40
-14 32 -127 -127 -109 127 127 6

tfl.pseudo_qconst19 i1 [64, 1, 1, 32]
00000000: d3f4 0e27 b833 d2d0 29ef 97e4 810a 5599
00000010: ef34 ef36 0dbb 07f2 4fc7 9427 e1fd ff9f
00000020: bfce ef46 240f 04ca e3f2 d8de d6dd 17e3
00000030: bdf3 ecc7 d813 d2ff d7d0 1e2a f6ee 2381
00000040: 2e64 ec29 5cf9 36cb 47e5 04f2 7ff7 048b
00000050: 39f0 13cf 42ad 1416 510b f0f9 d635 0842
00000060: 6c2a 21fb d2e1 f5b5 eed9 aadf a381 3144
00000070: df01 d3e8 f92f ad58 0da2 f401 30c5 d4aa
00000080: d9d9 ed0e da2b dad4 fbe7 eddc 11da 0deb
00000090: ff1b 020e e232 9e1e ee11 1afc 3481 0107
000000a0: 6b7f 075b 5846 3adc 1e08 27fd ef34 3db0
000000b0: 4f04 16e5 f104 2723 ec0c faec dc57 1515
000000c0: 0c18 132d e814 1e14 4c17 f73c 211b 7fc0
000000d0: b5df d3f3 fd22 07dd e816 274b e808 f9d4
000000e0: dbd7 020a dfd6 1c00 ccba 2a61 e110 d832
000000f0: ef0d 187f f349 3ef8 0001 49c4 b657 c41b
-45 -12 14 39 -72 51 -46 -48
41 -17 -105 -28 -127 10 85 -103
-17 52 -17 54 13 -69 7 -14
79 -57 -108 39 -31 -3 -1 -97
-65 -50 -17 70 36 15 4 -54
-29 -14 -40 -34 -42 -35 23 -29
-67 -13 -20 -57 -40 19 -46 -1
-41 -48 30 42 -10 -18 35 -127
46 100 -20 41 92 -7 54 -53
71 -27 4 -14 127 -9 4 -117
57 -16 19 -49 66 -83 20 22
81 11 -16 -7 -42 53 8 66
108 42 33 -5 -46 -31 -11 -75
-18 -39 -86 -33 -93 -127 49 68
-33 1 -45 -24 -7 47 -83 88
13 -94 -12 1 48 -59 -44 -86
-39 -39 -19 14 -38 43 -38 -44
-5 -25 -19 -36 17 -38 13 -21
-1 27 2 14 -30 50 -98 30
-18 17 26 -4 52 -127 1 7
107 127 7 91 88 70 58 -36
30 8 39 -3 -17 52 61 -80
79 4 22 -27 -15 4 39 35
-20 12 -6 -20 -36 87 21 21
12 24 19 45 -24 20 30 20
76 23 -9 60 33 27 127 -64
-75 -33 -45 -13 -3 34 7 -35
-24 22 39 75 -24 8 -7 -44
-37 -41 2 10 -33 -42 28 0
-52 -70 42 97 -31 16 -40 50
-17 13 24 127 -13 73 62 -8
0 1 73 -60 -74 87 -60 27

tfl.pseudo_qconst21 i1 [1, 5, 1, 32]
00000000: 7f7f 1ced 0818 f67f 7f60 8125 562e db16
00000010: 4408 5081 2981 66ec 7f78 18fe 812a 81fc
00000020: 6423 4af1 7ffb 7f23 af07 9603 4441 613e
00000030: 7f15 dad7 1fb7 3bda 4407 5bf9 9552 a316
00000040: 5501 267f 3ec1 f657 9d64 fe5c d838 0e35
00000050: 0a7f e6c9 cea1 7f27 62ce 117f fb7a f6a9
00000060: 167c 5965 7681 2fb8 23f9 ee7f b5a8 717f
00000070: 2f6d 8132 bb15 74b5 0281 af3c d962 32c3
00000080: 7338 7f95 5981 999e 8f81 9b7e 8181 7f63
00000090: b86b bb3a 8157 4881 02a1 81bf 887f 5f81
127 127 28 -19 8 24 -10 127
127 96 -127 37 86 46 -37 22
68 8 80 -127 41 -127 102 -20
127 120 24 -2 -127 42 -127 -4
100 35 74 -15 127 -5 127 35
-81 7 -106 3 68 65 97 62
127 21 -38 -41 31 -73 59 -38
68 7 91 -7 -107 82 -93 22
85 1 38 127 62 -63 -10 87
-99 100 -2 92 -40 56 14 53
10 127 -26 -55 -50 -95 127 39
98 -50 17 127 -5 122 -10 -87
22 124 89 101 118 -127 47 -72
35 -7 -18 127 -75 -88 113 127
47 109 -127 50 -69 21 116 -75
2 -127 -81 60 -39 98 50 -61
115 56 127 -107 89 -127 -103 -98
-113 -127 -101 126 -127 -127 127 99
-72 107 -69 58 -127 87 72 -127
2 -95 -127 -65 -120 127 95 -127

tfl.pseudo_qconst23 i1 [32, 5, 1, 40]
00000000: 20fc 1812 1818 1921 1739 b907 cfd0 b3de
00000010: adba 8eb8 81d6 c79f bfcf eafe 1402 20e3
00000020: 05d4 070e 1a2a 18eb 1e1a 1924 3029 261f
00000030: 0128 d8f2 bfea b6b9 9dcd a598 8ca7 c2bd
00000040: b4fd f8e1 1eef 471b fcd8 2801 3216 0f08
00000050: 1f14 30fa 3c4b 2f4d 2557 00fe d5f6 e8e1
00000060: e102 b5af 97d4 f2e0 f708 1a02 090a 3be6
00000070: 1fc9 110c 1425 27f4 5f28 3ef7 2655 2a4b
00000080: 2749 1b23 06ef df05 fdf1 bcba b4b1 ebfb
00000090: f5f0 2201 160c 4300 09da f6fc 0107 1bee
000000a0: 2b10 4011 192e 3350 281e e010 0de5 c4d4
000000b0: dbe7 ad8c b8c8 f3cb eac9 0bcb 09df 2dc6
000000c0: 099d fed8 da04 0fe6 7224 5853 0fe2 f834
000000d0: 0622 fb31 f34d 3210 0b1f 1219 d136 0e07
000000e0: fd34 f7ce d4ef e6f9 d21b f304 efd6 e9f7
000000f0: 7f10 303b f5f1 fe19 ce0f dc16 222c 341f
32 -4 24 18 24 24 25 33
23 57 -71 7 -49 -48 -77 -34
-83 -70 -114 -72 -127 -42 -57 -97
-65 -49 -22 -2 20 2 32 -29
5 -44 7 14 26 42 24 -21
30 26 25 36 48 41 38 31
1 40 -40 -14 -65 -22 -74 -71
-99 -51 -91 -104 -116 -89 -62 -67
-76 -3 -8 -31 30 -17 71 27
-4 -40 40 1 50 22 15 8
31 20 48 -6 60 75 47 77
37 87 0 -2 -43 -10 -24 -31
-31 2 -75 -81 -105 -44 -14 -32
-9 8 26 2 9 10 59 -26
31 -55 17 12 20 37 39 -12
95 40 62 -9 38 85 42 75
39 73 27 35 6 -17 -33 5
-3 -15 -68 -70 -76 -79 -21 -5
-11 -16 34 1 22 12 67 0
9 -38 -10 -4 1 7 27 -18
43 16 64 17 25 46 51 80
40 30 -32 16 13 -27 -60 -44
-37 -25 -83 -116 -72 -56 -13 -53
-22 -55 11 -53 9 -33 45 -58
9 -99 -2 -40 -38 4 15 -26
114 36 88 83 15 -30 -8 52
6 34 -5 49 -13 77 50 16
11 31 18 25 -47 54 14 7
-3 52 -9 -50 -44 -17 -26 -7
-46 27 -13 4 -17 -42 -23 -9
127 16 48 59 -11 -15 -2 25
-50 15 -36 22 34 44 52 31

tfl.pseudo_qconst24 i1 [1, 14, 1, 64] scale=0.042687412 zero_point=-128
00000000: 8080 8080 8080 8080 8080 8080 8080 8080
00000010: 8080 8080 8080 8080 8080 8080 8080 8080
00000020: 8080 8080 8080 8080 8080 8080 8080 8080
00000030: 8080 8080 8080 8080 8080 8080 8080 8080
00000040: 8080 8080 8080 8080 8080 8080 8080 8080
00000050: 8080 8080 8080 8080 8080 8080 8080 8080
00000060: 8080 8080 8080 8080 8080 8080 8080 8080
00000070: 8080 8080 8080 8080 8080 8080 8080 8080
00000080: 8080 8080 8080 8080 8080 8080 8080 8080
00000090: 8080 8080 8080 8080 8080 8080 8080 8080
000000a0: 8080 8080 8080 8080 8080 8080 8080 8080
000000b0: 8080 8080 8080 8080 8080 8080 8080 8080
000000c0: 8080 8080 8080 8080 8080 8080 8080 8080
000000d0: 8080 8080 8080 8080 8080 8080 8080 8080
000000e0: 8080 8080 8080 8080 8080 8080 8080 8080
000000f0: 8080 8080 8080 8080 8080 8080 8080 8080
0.0 0.0 0.0 0.0 0.0 0.0 0.0 0.0
0.0 0.0 0.0 0.0 0.0 0.0 0.0 0.0
0.0 0.0 0.0 0.0 0.0 0.0 0.0 0.0
0.0 0.0 0.0 0.0 0.0 0.0 0.0 0.0
0.0 0.0 0.0 0.0 0.0 0.0 0.0 0.0
0.0 0.0 0.0 0.0 0.0 0.0 0.0 0.0
0.0 0.0 0.0 0.0 0.0 0.0 0.0 0.0
0.0 0.0 0.0 0.0 0.0 0.0 0.0 0.0
0.0 0.0 0.0 0.0 0.0 0.0 0.0 0.0
0.0 0.0 0.0 0.0 0.0 0.0 0.0 0.0
0.0 0.0 0.0 0.0 0.0 0.0 0.0 0.0
0.0 0.0 0.0 0.0 0.0 0.0 0.0 0.0
0.0 0.0 0.0 0.0 0.0 0.0 0.0 0.0
0.0 0.0 0.0 0.0 0.0 0.0 0.0 0.0
0.0 0.0 0.0 0.0 0.0 0.0 0.0 0.0
0.0 0.0 0.0 0.0 0.0 0.0 0.0 0.0
0.0 0.0 0.0 0.0 0.0 0.0 0.0 0.0
0.0 0.0 0.0 0.0 0.0 0.0 0.0 0.0
0.0 0.0 0.0 0.0 0.0 0.0 0.0 0.0
0.0 0.0 0.0 0.0 0.0 0.0 0.0 0.0
0.0 0.0 0.0 0.0 0.0 0.0 0.0 0.0
0.0 0.0 0.0 0.0 0.0 0.0 0.0 0.0
0.0 0.0 0.0 0.0 0.0 0.0 0.0 0.0
0.0 0.0 0.0 0.0 0.0 0.0 0.0 0.0
0.0 0.0 0.0 0.0 0.0 0.0 0.0 0.0
0.0 0.0 0.0 0.0 0.0 0.0 0.0 0.0
0.0 0.0 0.0 0.0 0.0 0.0 0.0 0.0
0.0 0.0 0.0 0.0 0.0 0.0 0.0 0.0
0.0 0.0 0.0 0.0 0.0 0.0 0.0 0.0
0.0 0.0 0.0 0.0 0.0 0.0 0.0 0.0
0.0 0.0 0.0 0.0 0.0 0.0 0.0 0.0
0.0 0.0 0.0 0.0 0.0 0.0 0.0 0.0

tfl.pseudo_qconst25 i1 [1, 10, 1, 64] scale=0.03688261 zero_point=-128
00000000: 8080 8080 8080 8080 8080 8080 8080 8080
00000010: 8080 8080 8080 8080 8080 8080 8080 8080
00000020: 8080 8080 8080 8080 8080 8080 8080 8080
00000030: 8080 8080 8080 8080 8080 8080 8080 8080
00000040: 8080 8080 8080 8080 8080 8080 8080 8080
00000050: 8080 8080 8080 8080 8080 8080 8080 8080
00000060: 8080 8080 8080 8080 8080 8080 8080 8080
00000070: 8080 8080 8080 8080 8080 8080 8080 8080
00000080: 8080 8080 8080 8080 8080 8080 8080 8080
00000090: 8080 8080 8080 8080 8080 8080 8080 8080
000000a0: 8080 8080 8080 8080 8080 8080 8080 8080
000000b0: 8080 8080 8080 8080 8080 8080 8080 8080
000000c0: 8080 8080 8080 8080 8080 8080 8080 8080
000000d0: 8080 8080 8080 8080 8080 8080 8080 8080
000000e0: 8080 8080 8080 8080 8080 8080 8080 8080
000000f0: 8080 8080 8080 8080 8080 8080 8080 8080
0.0 0.0 0.0 0.0 0.0 0.0 0.0 0.0
0.0 0.0 0.0 0.0 0.0 0.0 0.0 0.0
0.0 0.0 0.0 0.0 0.0 0.0 0.0 0.0
0.0 0.0 0.0 0.0 0.0 0.0 0.0 0.0
0.0 0.0 0.0 0.0 0.0 0.0 0.0 0.0
0.0 0.0 0.0 0.0 0.0 0.0 0.0 0.0
0.0 0.0 0.0 0.0 0.0 0.0 0.0 0.0
0.0 0.0 0.0 0.0 0.0 0.0 0.0 0.0
0.0 0.0 0.0 0.0 0.0 0.0 0.0 0.0
0.0 0.0 0.0 0.0 0.0 0.0 0.0 0.0
0.0 0.0 0.0 0.0 0.0 0.0 0.0 0.0
0.0 0.0 0.0 0.0 0.0 0.0 0.0 0.0
0.0 0.0 0.0 0.0 0.0 0.0 0.0 0.0
0.0 0.0 0.0 0.0 0.0 0.0 0.0 0.0
0.0 0.0 0.0 0.0 0.0 0.0 0.0 0.0
0.0 0.0 0.0 0.0 0.0 0.0 0.0 0.0
0.0 0.0 0.0 0.0 0.0 0.0 0.0 0.0
0.0 0.0 0.0 0.0 0.0 0.0 0.0 0.0
0.0 0.0 0.0 0.0 0.0 0.0 0.0 0.0
0.0 0.0 0.0 0.0 0.0 0.0 0.0 0.0
0.0 0.0 0.0 0.0 0.0 0.0 0.0 0.0
0.0 0.0 0.0 0.0 0.0 0.0 0.0 0.0
0.0 0.0 0.0 0.0 0.0 0.0 0.0 0.0
0.0 0.0 0.0 0.0 0.0 0.0 0.0 0.0
0.0 0.0 0.0 0.0 0.0 0.0 0.0 0.0
0.0 0.0 0.0 0.0 0.0 0.0 0.0 0.0
0.0 0.0 0.0 0.0 0.0 0.0 0.0 0.0
0.0 0.0 0.0 0.0 0.0 0.0 0.0 0.0
0.0 0.0 0.0 0.0 0.0 0.0 0.0 0.0
0.0 0.0 0.0 0.0 0.0 0.0 0.0 0.0
0.0 0.0 0.0 0.0 0.0 0.0 0.0 0.0
0.0 0.0 0.0 0.0 0.0 0.0 0.0 0.0

tfl.pseudo_qconst26 i1 [1, 4, 1, 32] scale=3.2998827 zero_point=-128
00000000: 8080 8080 8080 8080 8080 8080 8080 8080
00000010: 8080 8080 8080 8080 8080 8080 8080 8080
00000020: 8080 8080 8080 8080 8080 8080 8080 8080
00000030: 8080 8080 8080 8080 8080 8080 8080 8080
00000040: 8080 8080 8080 8080 8080 8080 8080 8080
00000050: 8080 8080 8080 8080 8080 8080 8080 8080
00000060: 8080 8080 8080 8080 8080 8080 8080 8080
00000070: 8080 8080 8080 8080 8080 8080 8080 8080
0.0 0.0 0.0 0.0 0.0 0.0 0.0 0.0
0.0 0.0 0.0 0.0 0.0 0.0 0.0 0.0
0.0 0.0 0.0 0.0 0.0 0.0 0.0 0.0
0.0 0.0 0.0 0.0 0.0 0.0 0.0 0.0
0.0 0.0 0.0 0.0 0.0 0.0 0.0 0.0
0.0 0.0 0.0 0.0 0.0 0.0 0.0 0.0
0.0 0.0 0.0 0.0 0.0 0.0 0.0 0.0
0.0 0.0 0.0 0.0 0.0 0.0 0.0 0.0
0.0 0.0 0.0 0.0 0.0 0.0 0.0 0.0
0.0 0.0 0.0 0.0 0.0 0.0 0.0 0.0
0.0 0.0 0.0 0.0 0.0 0.0 0.0 0.0
0.0 0.0 0.0 0.0 0.0 0.0 0.0 0.0
0.0 0.0 0.0 0.0 0.0 0.0 0.0 0.0
0.0 0.0 0.0 0.0 0.0 0.0 0.0 0.0
0.0 0.0 0.0 0.0 0.0 0.0 0.0 0.0
0.0 0.0 0.0 0.0 0.0 0.0 0.0 0.0

tfl.pseudo_qconst27 i1 [1, 3, 1, 40] scale=0.101960786 zero_point=-128
00000000: 8080 8080 8080 8080 8080 8080 8080 8080
00000010: 8080 8080 8080 8080 8080 8080 8080 8080
00000020: 8080 8080 8080 8080 8080 8080 8080 8080
00000030: 8080 8080 8080 8080 8080 8080 8080 8080
00000040: 8080 8080 8080 8080 8080 8080 8080 8080
00000050: 8080 8080 8080 8080 8080 8080 8080 8080
00000060: 8080 8080 8080 8080 8080 8080 8080 8080
00000070: 8080 8080 8080 8080
0.0 0.0 0.0 0.0 0.0 0.0 0.0 0.0
0.0 0.0 0.0 0.0 0.0 0.0 0.0 0.0
0.0 0.0 0.0 0.0 0.0 0.0 0.0 0.0
0.0 0.0 0.0 0.0 0.0 0.0 0.0 0.0
0.0 0.0 0.0 0.0 0.0 0.0 0.0 0.0
0.0 0.0 0.0 0.0 0.0 0.0 0.0 0.0
0.0 0.0 0.0 0.0 0.0 0.0 0.0 0.0
0.0 0.0 0.0 0.0 0.0 0.0 0.0 0.0
0.0 0.0 0.0 0.0 0.0 0.0 0.0 0.0
0.0 0.0 0.0 0.0 0.0 0.0 0.0 0.0
0.0 0.0 0.0 0.0 0.0 0.0 0.0 0.0
0.0 0.0 0.0 0.0 0.0 0.0 0.0 0.0
0.0 0.0 0.0 0.0 0.0 0.0 0.0 0.0
0.0 0.0 0.0 0.0 0.0 0.0 0.0 0.0
0.0 0.0 0.0 0.0 0.0 0.0 0.0 0.0

tfl.pseudo_qconst28 i1 [1, 36, 1, 64] scale=0.020842496 zero_point=-128
00000000: 8080 8080 8080 8080 8080 8080 8080 8080
00000010: 8080 8080 8080 8080 8080 8080 8080 8080
00000020: 8080 8080 8080 8080 8080 8080 8080 8080
00000030: 8080 8080 8080 8080 8080 8080 8080 8080
00000040: 8080 8080 8080 8080 8080 8080 8080 8080
00000050: 8080 8080 8080 8080 8080 8080 8080 8080
00000060: 8080 8080 8080 8080 8080 8080 8080 8080
00000070: 8080 8080 8080 8080 8080 8080 8080 8080
00000080: 8080 8080 8080 8080 8080 8080 8080 8080
00000090: 8080 8080 8080 8080 8080 8080 8080 8080
000000a0: 8080 8080 8080 8080 8080 8080 8080 8080
000000b0: 8080 8080 8080 8080 8080 8080 8080 8080
000000c0: 8080 8080 8080 8080 8080 8080 8080 8080
000000d0: 8080 8080 8080 8080 8080 8080 8080 8080
000000e0: 8080 8080 8080 8080 8080 8080 8080 8080
000000f0: 8080 8080 8080 8080 8080 8080 8080 8080
0.0 0.0 0.0 0.0 0.0 0.0 0.0 0.0
0.0 0.0 0.0 0.0 0.0 0.0 0.0 0.0
0.0 0.0 0.0 0.0 0.0 0.0 0.0 0.0
0.0 0.0 0.0 0.0 0.0 0.0 0.0 0.0
0.0 0.0 0.0 0.0 0.0 0.0 0.0 0.0
0.0 0.0 0.0 0.0 0.0 0.0 0.0 0.0
0.0 0.0 0.0 0.0 0.0 0.0 0.0 0.0
0.0 0.0 0.0 0.0 0.0 0.0 0.0 0.0
0.0 0.0 0.0 0.0 0.0 0.0 0.0 0.0
0.0 0.0 0.0 0.0 0.0 0.0 0.0 0.0
0.0 0.0 0.0 0.0 0.0 0.0 0.0 0.0
0.0 0.0 0.0 0.0 0.0 0.0 0.0 0.0
0.0 0.0 0.0 0.0 0.0 0.0 0.0 0.0
0.0 0.0 0.0 0.0 0.0 0.0 0.0 0.0
0.0 0.0 0.0 0.0 0.0 0.0 0.0 0.0
0.0 0.0 0.0 0.0 0.0 0.0 0.0 0.0
0.0 0.0 0.0 0.0 0.0 0.0 0.0 0.0
0.0 0.0 0.0 0.0 0.0 0.0 0.0 0.0
0.0 0.0 0.0 0.0 0.0 0.0 0.0 0.0
0.0 0.0 0.0 0.0 0.0 0.0 0.0 0.0
0.0 0.0 0.0 0.0 0.0 0.0 0.0 0.0
0.0 0.0 0.0 0.0 0.0 0.0 0.0 0.0
0.0 0.0 0.0 0.0 0.0 0.0 0.0 0.0
0.0 0.0 0.0 0.0 0.0 0.0 0.0 0.0
0.0 0.0 0.0 0.0 0.0 0.0 0.0 0.0
0.0 0.0 0.0 0.0 0.0 0.0 0.0 0.0
0.0 0.0 0.0 0.0 0.0 0.0 0.0 0.0
0.0 0.0 0.0 0.0 0.0 0.0 0.0 0.0
0.0 0.0 0.0 0.0 0.0 0.0 0.0 0.0
0.0 0.0 0.0 0.0 0.0 0.0 0.0 0.0
0.0 0.0 0.0 0.0 0.0 0.0 0.0 0.0
0.0 0.0 0.0 0.0 0.0 0.0 0.0 0.0

tfl.pseudo_qconst29 i1 [1, 22, 1, 64] scale=0.047805246 zero_point=-128
00000000: 8080 8080 8080 8080 8080 8080 8080 8080
00000010: 8080 8080 8080 8080 8080 8080 8080 8080
00000020: 8080 8080 8080 8080 8080 8080 8080 8080
00000030: 8080 8080 8080 8080 8080 8080 8080 8080
00000040: 8080 8080 8080 8080 8080 8080 8080 8080
00000050: 8080 8080 8080 8080 8080 8080 8080 8080
00000060: 8080 8080 8080 8080 8080 8080 8080 8080
00000070: 8080 8080 8080 8080 8080 8080 8080 8080
00000080: 8080 8080 8080 8080 8080 8080 8080 8080
00000090: 8080 8080 8080 8080 8080 8080 8080 8080
000000a0: 8080 8080 8080 8080 8080 8080 8080 8080
000000b0: 8080 8080 8080 8080 8080 8080 8080 8080
000000c0: 8080 8080 8080 8080 8080 8080 8080 8080
000000d0: 8080 8080 8080 8080 8080 8080 8080 8080
000000e0: 8080 8080 8080 8080 8080 8080 8080 8080
000000f0: 8080 8080 8080 8080 8080 8080 8080 8080
0.0 0.0 0.0 0.0 0.0 0.0 0.0 0.0
0.0 0.0 0.0 0.0 0.0 0.0 0.0 0.0
0.0 0.0 0.0 0.0 0.0 0.0 0.0 0.0
0.0 0.0 0.0 0.0 0.0 0.0 0.0 0.0
0.0 0.0 0.0 0.0 0.0 0.0 0.0 0.0
0.0 0.0 0.0 0.0 0.0 0.0 0.0 0.0
0.0 0.0 0.0 0.0 0.0 0.0 0.0 0.0
0.0 0.0 0.0 0.0 0.0 0.0 0.0 0.0
0.0 0.0 0.0 0.0 0.0 0.0 0.0 0.0
0.0 0.0 0.0 0.0 0.0 0.0 0.0 0.0
0.0 0.0 0.0 0.0 0.0 0.0 0.0 0.0
0.0 0.0 0.0 0.0 0.0 0.0 0.0 0.0
0.0 0.0 0.0 0.0 0.0 0.0 0.0 0.0
0.0 0.0 0.0 0.0 0.0 0.0 0.0 0.0
0.0 0.0 0.0 0.0 0.0 0.0 0.0 0.0
0.0 0.0 0.0 0.0 0.0 0.0 0.0 0.0
0.0 0.0 0.0 0.0 0.0 0.0 0.0 0.0
0.0 0.0 0.0 0.0 0.0 0.0 0.0 0.0
0.0 0.0 0.0 0.0 0.0 0.0 0.0 0.0
0.0 0.0 0.0 0.0 0.0 0.0 0.0 0.0
0.0 0.0 0.0 0.0 0.0 0.0 0.0 0.0
0.0 0.0 0.0 0.0 0.0 0.0 0.0 0.0
0.0 0.0 0.0 0.0 0.0 0.0 0.0 0.0
0.0 0.0 0.0 0.0 0.0 0.0 0.0 0.0
0.0 0.0 0.0 0.0 0.0 0.0 0.0 0.0
0.0 0.0 0.0 0.0 0.0 0.0 0.0 0.0
0.0 0.0 0.0 0.0 0.0 0.0 0.0 0.0
0.0 0.0 0.0 0.0 0.0 0.0 0.0 0.0
0.0 0.0 0.0 0.0 0.0 0.0 0.0 0.0
0.0 0.0 0.0 0.0 0.0 0.0 0.0 0.0
0.0 0.0 0.0 0.0 0.0 0.0 0.0 0.0
0.0 0.0 0.0 0.0 0.0 0.0 0.0 0.0
