alisa.tflite (tflite, 63544 bytes, 18 tensors)

tfl.pseudo_qconst1 i1 [1, 2368] scale=0.0041358145 zero_point=0
000000 01 e6 e8 e4 af e5 04 f7 dd e6 03 10 ed 16 1c fe
       0.0041358145 -0.107531175 -0.09925955 -0.11580281 -0.33500096 -0.11166699 0.016543258 -0.03722233 -0.1447535 -0.107531175 0.0124074435 0.06617303 -0.07858048 0.09098792 0.11580281 -0.008271629
000010 ee 0c eb ec 09 f2 f2 fc e8 0d cd 00 ec 14 18 e1
       -0.07444466 0.049629774 -0.0868521 -0.082716286 0.03722233 -0.057901405 -0.057901405 -0.016543258 -0.09925955 0.053765588 -0.21092653 0.0 -0.082716286 0.082716286 0.09925955 -0.12821025
000020 f6 0c 18 ed ee f6 f7 d7 eb 36 f7 28 20 df fa 0b
       -0.041358143 0.049629774 0.09925955 -0.07858048 -0.07444466 -0.041358143 -0.03722233 -0.16956839 -0.0868521 0.22333398 -0.03722233 0.16543257 0.13234606 -0.13648188 -0.024814887 0.04549396
000030 1a 0a ea ed e3 14 f4 f3 0e f0 12 22 e3 de d7 09
       0.107531175 0.041358143 -0.09098792 -0.07858048 -0.11993862 0.082716286 -0.049629774 -0.053765588 0.057901405 -0.06617303 0.07444466 0.1406177 -0.11993862 -0.1406177 -0.16956839 0.03722233
000040 ea f6 f7 ec c4 ee f7 0e d6 e4 f2 11 f6 14 12 07
       -0.09098792 -0.041358143 -0.03722233 -0.082716286 -0.24814887 -0.07444466 -0.03722233 0.057901405 -0.1737042 -0.11580281 -0.057901405 0.07030885 -0.041358143 0.082716286 0.07444466 0.028950702
000050 ef 07 fc f2 f0 f1 f6 08 e9 19 d9 00 e8 09 fe e1
       -0.07030885 0.028950702 -0.016543258 -0.057901405 -0.06617303 -0.06203722 -0.041358143 0.033086516 -0.09512373 0.103395365 -0.16129677 0.0 -0.09925955 0.03722233 -0.008271629 -0.12821025
000060 f6 f2 15 ea e1 f0 0d ec e9 18 f3 0d 11 db 01 03
       -0.041358143 -0.057901405 0.0868521 -0.09098792 -0.12821025 -0.06617303 0.053765588 -0.082716286 -0.09512373 0.09925955 -0.053765588 0.053765588 0.07030885 -0.15302514 0.0041358145 0.0124074435
000070 20 00 e0 fd e2 15 02 f8 ff fb 18 11 ee db dc 05
       0.13234606 0.0 -0.13234606 -0.0124074435 -0.12407444 0.0868521 0.008271629 -0.033086516 -0.0041358145 -0.020679072 0.09925955 0.07030885 -0.07444466 -0.15302514 -0.14888932 0.020679072
000080 f3 fc fd 03 d2 eb 08 12 ca d7 e4 05 f5 0a 1a fb
       -0.053765588 -0.016543258 -0.0124074435 0.0124074435 -0.19024746 -0.0868521 0.033086516 0.07444466 -0.22333398 -0.16956839 -0.11580281 0.020679072 -0.04549396 0.041358143 0.107531175 -0.020679072
000090 f6 f7 f7 e2 e1 ff fb 04 eb 07 db e4 03 14 f4 ef
       -0.041358143 -0.03722233 -0.03722233 -0.12407444 -0.12821025 -0.0041358145 -0.020679072 0.016543258 -0.0868521 0.028950702 -0.15302514 -0.11580281 0.0124074435 0.082716286 -0.049629774 -0.07030885
0000a0 eb f7 0b e1 f1 07 fc ed 03 27 fa 01 17 de 09 f0
       -0.0868521 -0.03722233 0.04549396 -0.12821025 -0.06203722 0.028950702 -0.016543258 -0.07858048 0.0124074435 0.16129677 -0.024814887 0.0041358145 0.09512373 -0.1406177 0.03722233 -0.06617303
0000b0 0e 08 db 02 dd 06 fd 04 fa 08 13 0b ec f4 e1 fa
       0.057901405 0.033086516 -0.15302514 0.008271629 -0.1447535 0.024814887 -0.0124074435 0.016543258 -0.024814887 0.033086516 0.07858048 0.04549396 -0.082716286 -0.049629774 -0.12821025 -0.024814887
0000c0 fa 11 ee 01 d2 ec 15 0b e4 eb f1 08 eb 05 01 f1
       -0.024814887 0.07030885 -0.07444466 0.0041358145 -0.19024746 -0.082716286 0.0868521 0.04549396 -0.11580281 -0.0868521 -0.06203722 0.033086516 -0.0868521 0.020679072 0.0041358145 -0.06203722
0000d0 fb ff fd ee f0 f4 f3 0e e2 0c ef f1 07 0d f6 fc
       -0.020679072 -0.0041358145 -0.0124074435 -0.07444466 -0.06617303 -0.049629774 -0.053765588 0.057901405 -0.12407444 0.049629774 -0.07030885 -0.06203722 0.028950702 0.053765588 -0.041358143 -0.016543258
0000e0 08 f0 04 f7 ee fb 08 02 fa 0e fc 04 14 f1 fc 05
       0.033086516 -0.06617303 0.016543258 -0.03722233 -0.07444466 -0.020679072 0.033086516 0.008271629 -0.024814887 0.057901405 -0.016543258 0.016543258 0.082716286 -0.06203722 -0.016543258 0.020679072
0000f0 ff 03 e0 fc e3 0b f2 f9 df 07 03 03 f6 fa fa 06
       -0.0041358145 0.0124074435 -0.13234606 -0.016543258 -0.11993862 0.04549396 -0.057901405 -0.028950702 -0.13648188 0.028950702 0.0124074435 0.0124074435 -0.041358143 -0.024814887 -0.024814887 0.024814887

tfl.pseudo_qconst3 i1 [64, 1, 1, 64]
000000 1c 58 df 00 09 cf 61 c4 d7 36 41 da df bd 09 ec
       28 88 -33 0 9 -49 97 -60 -41 54 65 -38 -33 -67 9 -20
000010 dc dc 04 01 11 d2 0b 81 d6 c6 df 19 06 23 57 cb
       -36 -36 4 1 17 -46 11 -127 -42 -58 -33 25 6 35 87 -53
000020 50 e7 f8 13 bb d1 d7 25 b6 a6 f7 52 29 03 21 d5
       80 -25 -8 19 -69 -47 -41 37 -74 -90 -9 82 41 3 33 -43
000030 c1 be ff a0 00 3a dd 22 c6 d9 06 c7 b9 52 f1 11
       -63 -66 -1 -96 0 58 -35 34 -58 -39 6 -57 -71 82 -15 17
000040 14 3d fc 1d cf fd 2c 7f 4c 61 d7 1e fb eb 31 be
       20 61 -4 29 -49 -3 44 127 76 97 -41 30 -5 -21 49 -66
000050 06 e2 f4 f5 4c f4 f3 27 26 a4 d3 fa e5 34 1c 3d
       6 -30 -12 -11 76 -12 -13 39 38 -92 -45 -6 -27 52 28 61
000060 2a fe 54 0e 0b 24 20 fc f0 10 ee fb ad bf 0b 41
       42 -2 84 14 11 36 32 -4 -16 16 -18 -5 -83 -65 11 65
000070 e1 04 14 40 ae 33 1c e7 ff 05 d4 25 30 07 f2 6a
       -31 4 20 64 -82 51 28 -25 -1 5 -44 37 48 7 -14 106
000080 0f fb 03 f6 dc d9 11 81 51 20 1d ce 33 d9 0f e6
       15 -5 3 -10 -36 -39 17 -127 81 32 29 -50 51 -39 15 -26
000090 ea e1 2a 34 d9 fd 4b f1 cb eb ee 22 de 28 46 d1
       -22 -31 42 52 -39 -3 75 -15 -53 -21 -18 34 -34 40 70 -47
0000a0 1a 09 24 ea cb 1e 24 12 22 42 4f e6 e6 dd cb ef
       26 9 36 -22 -53 30 36 18 34 66 79 -26 -26 -35 -53 -17
0000b0 f7 a7 03 a9 33 34 02 09 fe 18 1e 38 1a db 01 af
       -9 -89 3 -87 51 52 2 9 -2 24 30 56 26 -37 1 -81
0000c0 26 37 e6 1a cf ea 5b 17 5d f2 ec 00 f7 ef 1a 27
       38 55 -26 26 -49 -22 91 23 93 -14 -20 0 -9 -17 26 39
0000d0 c9 76 14 d6 05 f4 e9 b5 e9 f0 fd e2 f6 e7 08 4e
       -55 118 20 -42 5 -12 -23 -75 -23 -16 -3 -30 -10 -25 8 78
0000e0 c1 3f f7 c4 22 2a 11 a7 0b 03 d0 c4 00 b2 16 03
       -63 63 -9 -60 34 42 17 -89 11 3 -48 -60 0 -78 22 3
0000f0 e3 11 1b ba dc 23 42 7f 22 d5 18 e0 31 f4 ff bf
       -29 17 27 -70 -36 35 66 127 34 -43 24 -32 49 -12 -1 -65

tfl.pseudo_qconst5 i1 [1, 23, 1, 64]
000000 21 81 dc 36 0b 7f e0 23 a2 96 01 ef 7f 7f f8 bc
       33 -127 -36 54 11 127 -32 35 -94 -106 1 -17 127 127 -8 -68
000010 e1 6a 76 7f 1d c8 81 eb 81 49 35 ee c2 74 df db
       -31 106 118 127 29 -56 -127 -21 -127 73 53 -18 -62 116 -33 -37
000020 fb 7f f9 d4 ed f7 38 19 e2 27 7f db dc b6 7f cd
       -5 127 -7 -44 -19 -9 56 25 -30 39 127 -37 -36 -74 127 -51
000030 7f 7f 6e 4d 58 f7 d1 93 6a a8 0a 44 2c 86 12 04
       127 127 110 77 88 -9 -47 -109 106 -88 10 68 44 -122 18 4
000040 00 87 fd 02 19 5c d9 04 cb 81 e9 c4 74 47 fe f3
       0 -121 -3 2 25 92 -39 4 -53 -127 -23 -60 116 71 -2 -13
000050 e7 62 58 7a 1d ab aa d8 ba 55 42 74 aa 7f be d1
       -25 98 88 122 29 -85 -86 -40 -70 85 66 116 -86 127 -66 -47
000060 ff 7e 18 cc 1e f1 2b fa be 34 60 06 c2 f6 58 e3
       -1 126 24 -52 30 -15 43 -6 -66 52 96 6 -62 -10 88 -29
000070 6f 79 4f 44 15 0b 2f aa 62 ad 01 17 59 81 bb 13
       111 121 79 68 21 11 47 -86 98 -83 1 23 89 -127 -69 19
000080 db 82 f9 fc eb 70 c0 07 d4 8c 00 cb 77 5d 1c 25
       -37 -126 -7 -4 -21 112 -64 7 -44 -116 0 -53 119 93 28 37
000090 01 e4 6f 4c 4b de c3 ef ae 5c 50 42 b5 44 f8 fb
       1 -28 111 76 75 -34 -61 -17 -82 92 80 66 -75 68 -8 -5
0000a0 04 4f 2a d7 1a 15 3f 0e c5 d8 21 dd f4 ec 4a f3
       4 79 42 -41 26 21 63 14 -59 -40 33 -35 -12 -20 74 -13
0000b0 51 44 4c 27 03 fc f8 c4 5b 9a e4 09 7f a9 e6 15
       81 68 76 39 3 -4 -8 -60 91 -102 -28 9 127 -87 -26 21
0000c0 b3 9c e6 21 e0 3e c7 f6 ed b6 eb fd 67 44 f7 05
       -77 -100 -26 33 -32 62 -57 -10 -19 -74 -21 -3 103 68 -9 5
0000d0 fd b0 5e 46 4d f0 cc ef cf f1 43 dc 81 21 b6 1a
       -3 -80 94 70 77 -16 -52 -17 -49 -15 67 -36 -127 33 -74 26
0000e0 e1 31 81 02 45 fc 27 ef d8 3e 0b d7 bf 1c 3c cd
       -31 49 -127 2 69 -4 39 -17 -40 62 11 -41 -65 28 60 -51
0000f0 21 34 09 08 16 01 52 ea 57 c7 03 f4 36 f6 b5 11
       33 52 9 8 22 1 82 -22 87 -57 3 -12 54 -10 -75 17

tfl.pseudo_qconst7 i1 [64, 1, 1, 64]
000000 42 46 f5 29 27 5f 12 02 db d5 76 b4 24 40 52 61
       66 70 -11 41 39 95 18 2 -37 -43 118 -76 36 64 82 97
000010 d0 cb 2a d6 3b b1 06 28 f7 d8 97 bf 17 fe ca 06
       -48 -53 42 -42 59 -79 6 40 -9 -40 -105 -65 23 -2 -54 6
000020 cb 01 b6 ec c5 52 d6 36 f7 e6 34 16 12 8a 2a a1
       -53 1 -74 -20 -59 82 -42 54 -9 -26 52 22 18 -118 42 -95
000030 2a ba ec e6 2b fe 7f d1 f1 14 11 cb 30 1f fe 40
       42 -70 -20 -26 43 -2 127 -47 -15 20 17 -53 48 31 -2 64
000040 19 cb f6 a2 5a 08 06 13 31 08 ce e1 21 ea f3 2e
       25 -53 -10 -94 90 8 6 19 49 8 -50 -31 33 -22 -13 46
000050 18 10 b3 f9 08 04 3c 43 e8 f3 fc b3 ee 2c 48 11
       24 16 -77 -7 8 4 60 67 -24 -13 -4 -77 -18 44 72 17
000060 24 6c 0c 97 09 c4 e6 33 f6 1f 49 be aa 0b d4 38
       36 108 12 -105 9 -60 -26 51 -10 31 73 -66 -86 11 -44 56
000070 32 c3 2c d6 7f 48 46 0e 4a bc 28 47 37 44 dc 26
       50 -61 44 -42 127 72 70 14 74 -68 40 71 55 68 -36 38
000080 04 3d fa 55 de f8 0e 3f 23 81 e0 cf d1 34 62 d8
       4 61 -6 85 -34 -8 14 63 35 -127 -32 -49 -47 52 98 -40
000090 14 ed 0d fa e2 df f2 fe 14 c7 f7 d7 e7 f9 e6 e5
       20 -19 13 -6 -30 -33 -14 -2 20 -57 -9 -41 -25 -7 -26 -27
0000a0 40 38 e1 f9 c0 1e 27 f9 42 eb d8 f9 10 b4 31 0b
       64 56 -31 -7 -64 30 39 -7 66 -21 -40 -7 16 -76 49 11
0000b0 0f e1 bb 2b 07 f3 36 e8 e3 f7 35 3e 22 18 0b 44
       15 -31 -69 43 7 -13 54 -24 -29 -9 53 62 34 24 11 68
0000c0 f6 39 16 e9 09 e7 f6 c2 ef 05 eb 01 31 25 07 d9
       -10 57 22 -23 9 -25 -10 -62 -17 5 -21 1 49 37 7 -39
0000d0 f1 c0 05 27 f2 f0 7f ec 48 1f 6a b7 fc 60 25 cb
       -15 -64 5 39 -14 -16 127 -20 72 31 106 -73 -4 96 37 -53
0000e0 df 33 41 34 ee 31 cb 49 f2 38 ce e4 84 5b 25 5c
       -33 51 65 52 -18 49 -53 73 -14 56 -50 -28 -124 91 37 92
0000f0 f6 12 42 c9 05 3a ef 14 13 81 ab 19 3c 00 5b 1b
       -10 18 66 -55 5 58 -17 20 19 -127 -85 25 60 0 91 27

tfl.pseudo_qconst9 i1 [1, 15, 1, 32]
000000 83 7f 48 7f 58 7f 3b ff 0a 51 39 94 a3 f3 d2 cd
       -125 127 72 127 88 127 59 -1 10 81 57 -108 -93 -13 -46 -51
000010 5a 49 7f 31 4e 22 5d 7f 0b e9 d7 03 d7 10 e8 13
       90 73 127 49 78 34 93 127 11 -23 -41 3 -41 16 -24 19
000020 c8 27 e5 76 fa 54 bc e4 d2 31 60 b4 e9 f0 e1 1e
       -56 39 -27 118 -6 84 -68 -28 -46 49 96 -76 -23 -16 -31 30
000030 53 27 3b c9 2d 36 2a 7f 1f cf bf 2f c2 59 37 f8
       83 39 59 -55 45 54 42 127 31 -49 -65 47 -62 89 55 -8
000040 81 7c 2e 57 ec 3b d4 cc fa 10 6f b5 ce 1b ea 28
       -127 124 46 87 -20 59 -44 -52 -6 16 111 -75 -50 27 -22 40
000050 3c 15 4a 81 5c ce 2d 75 13 db 10 0c b9 2d 20 f4
       60 21 74 -127 92 -50 45 117 19 -37 16 12 -71 45 32 -12
000060 8a 56 e8 49 bc 07 02 e9 c6 37 66 98 05 fc a1 0e
       -118 86 -24 73 -68 7 2 -23 -58 55 102 -104 5 -4 -95 14
000070 03 1c 2c f4 61 e9 01 7e 21 fe ea dc 8d 01 52 0c
       3 28 44 -12 97 -23 1 126 33 -2 -22 -36 -115 1 82 12
000080 92 48 e4 2a ae 40 c2 df 1f 31 48 81 f2 0a ac 03
       -110 72 -28 42 -82 64 -62 -33 31 49 72 -127 -14 10 -84 3
000090 7f 09 25 e4 53 2e df 7b e0 e8 69 0f d7 1c 50 4f
       127 9 37 -28 83 46 -33 123 -32 -24 105 15 -41 28 80 79
0000a0 a6 ca f3 5a 81 27 f4 cf 29 1b 20 b0 11 16 ed 4a
       -90 -54 -13 90 -127 39 -12 -49 41 27 32 -80 17 22 -19 74
0000b0 27 0c f3 e9 7f 0b a8 28 23 01 79 e1 b9 08 0f 3e
       39 12 -13 -23 127 11 -88 40 35 1 121 -31 -71 8 15 62
0000c0 85 c3 ac 20 9a 3b 81 c8 28 fa 07 df f4 30 81 0a
       -123 -61 -84 32 -102 59 -127 -56 40 -6 7 -33 -12 48 -127 10
0000d0 de 18 07 1f 44 15 b2 54 03 0d 7f b7 81 17 e6 07
       -34 24 7 31 68 21 -78 84 3 13 127 -73 -127 23 -26 7
0000e0 be 9c cb 35 b4 14 90 e0 0b 2b a9 bf dd 64 94 0f
       -66 -100 -53 53 -76 20 -112 -32 11 43 -87 -65 -35 100 -108 15
0000f0 41 3b da 2d 70 2a a8 13 16 35 33 dd d2 7f 7f fa
       65 59 -38 45 112 42 -88 19 22 53 51 -35 -46 127 127 -6

tfl.pseudo_qconst11 i1 [1, 9, 1, 32]
000000 c0 a8 14 c0 c3 a2 dc cf 41 c1 f2 13 e4 59 a8 f8
       -64 -88 20 -64 -61 -94 -36 -49 65 -63 -14 19 -28 89 -88 -8
000010 d8 48 7f 04 ff d0 43 f8 f8 52 df f0 31 cf b5 38
       -40 72 127 4 -1 -48 67 -8 -8 82 -33 -16 49 -49 -75 56
000020 9b dd 5b 87 df d3 ff e2 68 ca 9c 60 44 d6 a7 df
       -101 -35 91 -121 -33 -45 -1 -30 104 -54 -100 96 68 -42 -89 -33
000030 ec 10 63 4a b0 00 1a f2 e6 27 8d c3 27 21 f4 3f
       -20 16 99 74 -80 0 26 -14 -26 39 -115 -61 39 33 -12 63
000040 d2 81 73 0d cf 7f e9 89 67 fc ab 2d 2f cd c1 39
       -46 -127 115 13 -49 127 -23 -119 103 -4 -85 45 47 -51 -63 57
000050 8e e2 f5 df 81 19 3d f1 c6 0a b4 f7 39 22 81 af
       -114 -30 -11 -33 -127 25 61 -15 -58 10 -76 -9 57 34 -127 -81
000060 8e b7 c9 9b be a3 9a 1e f5 f3 e6 5b f3 8d c8 0d
       -114 -73 -55 -101 -66 -93 -102 30 -11 -13 -26 91 -13 -115 -56 13
000070 09 c9 29 89 02 fa 13 05 fd 36 cf ea e2 ec b1 d6
       9 -55 41 -119 2 -6 19 5 -3 54 -49 -22 -30 -20 -79 -42
000080 f2 13 4a 2e d0 57 81 d6 81 54 b3 d4 1b 34 c3 ba
       -14 19 74 46 -48 87 -127 -42 -127 84 -77 -44 27 52 -61 -70
000090 a9 b0 bb 3a 5f fe d5 f2 b5 dd 0b d4 d2 03 b6 81
       -87 -80 -69 58 95 -2 -43 -14 -75 -35 11 -44 -46 3 -74 -127
0000a0 86 b1 cf d3 8e e8 c9 cf c1 1b af e1 7f 03 d1 81
       -122 -79 -49 -45 -114 -24 -55 -49 -63 27 -81 -31 127 3 -47 -127
0000b0 4a 31 c7 36 c9 f4 bb df b8 5f ee ac e0 e7 95 df
       74 49 -57 54 -55 -12 -69 -33 -72 95 -18 -84 -32 -25 -107 -33
0000c0 f6 c8 e2 e9 a9 cf d1 d8 67 54 81 bc 4d ca 8a 07
       -10 -56 -30 -23 -87 -49 -47 -40 103 84 -127 -68 77 -54 -118 7
0000d0 57 b2 45 37 5f 29 8f f1 d0 2b 6f cc a0 bc f5 0a
       87 -78 69 55 95 41 -113 -15 -48 43 111 -52 -96 -68 -11 10
0000e0 61 be 81 0a 81 1e d9 7f 32 7f bc 81 aa 08 81 b6
       97 -66 -127 10 -127 30 -39 127 50 127 -68 -127 -86 8 -127 -74
0000f0 7f 7f a0 7f 66 2a 81 d4 94 0a 5b c0 81 b0 e3 2b
       127 127 -96 127 102 42 -127 -44 -108 10 91 -64 -127 -80 -29 43

tfl.pseudo_qconst13 i1 [64, 1, 1, 64]
000000 de 22 ff dd 16 ec da 43 e2 ea 2b 1c f0 05 39 ec
       -34 34 -1 -35 22 -20 -38 67 -30 -22 43 28 -16 5 57 -20
000010 f4 43 10 e0 d1 ba d7 38 53 01 ea a6 ef fb f6 eb
       -12 67 16 -32 -47 -70 -41 56 83 1 -22 -90 -17 -5 -10 -21
000020 be 0a 1d fd f8 41 1a 1c fc 34 05 f4 f1 e7 04 21
       -66 10 29 -3 -8 65 26 28 -4 52 5 -12 -15 -25 4 33
000030 81 e0 eb 51 23 f6 b3 50 eb 2e 0d d9 14 ee f7 b8
       -127 -32 -21 81 35 -10 -77 80 -21 46 13 -39 20 -18 -9 -72
000040 9c bc 44 f3 d2 d6 e2 d7 54 ac f1 f3 3f 0e f5 24
       -100 -68 68 -13 -46 -42 -30 -41 84 -84 -15 -13 63 14 -11 36
000050 fb f2 6a 48 00 5b ab 3d db ca 15 cc 25 d3 98 ca
       -5 -14 106 72 0 91 -85 61 -37 -54 21 -52 37 -45 -104 -54
000060 19 e7 88 d6 10 1c e9 11 ec cd f7 37 b5 46 bb b1
       25 -25 -120 -42 16 28 -23 17 -20 -51 -9 55 -75 70 -69 -79
000070 7f f1 c1 25 32 39 31 cd e5 cf 33 0a ff c6 ea 22
       127 -15 -63 37 50 57 49 -51 -27 -49 51 10 -1 -58 -22 34
000080 19 50 84 e7 fc 18 87 f0 b9 3c ee d2 ec 10 f9 1a
       25 80 -124 -25 -4 24 -121 -16 -71 60 -18 -46 -20 16 -7 26
000090 6a e0 e5 ee 2a d2 fc 81 d7 35 dc df d0 e5 f4 d2
       106 -32 -27 -18 42 -46 -4 -127 -41 53 -36 -33 -48 -27 -12 -46
0000a0 2c 28 47 f7 1b f6 f5 e2 e2 0b 1b 4f 0b a8 c6 df
       44 40 71 -9 27 -10 -11 -30 -30 11 27 79 11 -88 -58 -33
0000b0 fa e2 e7 1b ca 26 05 e1 ce 45 06 bd 2d 28 1c 02
       -6 -30 -25 27 -54 38 5 -31 -50 69 6 -67 45 40 28 2
0000c0 47 23 0e 37 d7 fd 06 f8 2c 1b ed 1e 3c d0 d2 d2
       71 35 14 55 -41 -3 6 -8 44 27 -19 30 60 -48 -46 -46
0000d0 11 dd 04 4e b6 19 71 d8 09 39 70 ff a7 1d 1c c7
       17 -35 4 78 -74 25 113 -40 9 57 112 -1 -89 29 28 -57
0000e0 e4 0f e1 ee c3 cb ca 0f d7 ab 99 01 d8 00 5a dd
       -28 15 -31 -18 -61 -53 -54 15 -41 -85 -103 1 -40 0 90 -35
0000f0 19 d3 51 17 50 0b fd a5 7f 27 e6 cf 26 08 21 d3
       25 -45 81 23 80 11 -3 -91 127 39 -26 -49 38 8 33 -45

tfl.pseudo_qconst15 i1 [1, 11, 1, 32]
000000 81 81 d6 cf 9a ee 9a be ed a3 a9 74 44 07 81 7c
       -127 -127 -42 -49 -102 -18 -102 -66 -19 -93 -87 116 68 7 -127 124
000010 81 5f ff 19 2f a6 35 c4 17 ea 91 8c 7f ba 1d f3
       -127 95 -1 25 47 -90 53 -60 23 -22 -111 -116 127 -70 29 -13
000020 e5 d6 10 04 c6 2c b7 ba d4 ae 81 38 07 3c a3 9a
       -27 -42 16 4 -58 44 -73 -70 -44 -82 -127 56 7 60 -93 -102
000030 9a 02 9c 4a eb ff 60 9d 7f cb 81 bb 60 dc 5e 3c
       -102 2 -100 74 -21 -1 96 -99 127 -53 -127 -69 96 -36 94 60
000040 9c 96 cd fe e8 f6 81 29 ec 5d 92 3c db fc aa d4
       -100 -106 -51 -2 -24 -10 -127 41 -20 93 -110 60 -37 -4 -86 -44
000050 de 2f 1d da 2f e1 3e a9 f2 d2 96 cb 51 08 0a 6b
       -34 47 29 -38 47 -31 62 -87 -14 -46 -106 -53 81 8 10 107
000060 a5 bc d7 f8 b8 ae bc 10 2c e3 08 7f 0d c5 d8 9e
       -91 -68 -41 -8 -72 -82 -68 16 44 -29 8 127 13 -59 -40 -98
000070 17 1a f4 4e 22 44 7f c0 7f bb 06 be 37 28 5b 77
       23 26 -12 78 34 68 127 -64 127 -69 6 -66 55 40 91 119
000080 cc e9 be e1 17 ed cb 56 1a 70 d1 6e 0c 25 af 9a
       -52 -23 -66 -31 23 -19 -53 86 26 112 -47 110 12 37 -81 -102
000090 2e 0d 31 0e 2c 7f 4f b0 4b fa 5c b1 3b f5 6d 7f
       46 13 49 14 44 127 79 -80 75 -6 92 -79 59 -11 109 127
0000a0 dc 4b 86 f4 20 b7 39 28 03 24 bf 2e cb 13 31 a5
       -36 75 -122 -12 32 -73 57 40 3 36 -65 46 -53 19 49 -91
0000b0 4c ec cc ea 3d fa 25 de 1e fe 15 af 33 32 7f 7e
       76 -20 -52 -22 61 -6 37 -34 30 -2 21 -81 51 50 127 126
0000c0 f1 06 81 03 fa f6 37 37 b2 0a cd b8 be 21 2a de
       -15 6 -127 3 -6 -10 55 55 -78 10 -51 -72 -66 33 42 -34
0000d0 73 ec 3c 81 38 27 43 bc f6 2b fa 68 28 29 15 53
       115 -20 60 -127 56 39 67 -68 -10 43 -6 104 40 41 21 83
0000e0 14 24 de fc 0e 1a 47 55 e3 7f 1b ad f0 70 44 e0
       20 36 -34 -4 14 26 71 85 -29 127 27 -83 -16 112 68 -32
0000f0 3f f4 59 aa 19 14 47 0d c1 c6 31 3b 00 2f 61 e0
       63 -12 89 -86 25 20 71 13 -63 -58 49 59 0 47 97 -32

tfl.pseudo_qconst17 i1 [1, 7, 1, 32]
000000 f0 07 24 69 d1 3a a9 7f 7f 0d f8 3f 42 89 2e 1e
       -16 7 36 105 -47 58 -87 127 127 13 -8 63 66 -119 46 30
000010 7f 14 0b 20 99 c6 97 74 e4 17 28 cf 1b 60 fc 4e
       127 20 11 32 -103 -58 -105 116 -28 23 40 -49 27 96 -4 78
000020 4c d1 5d 51 9c 0c 81 31 62 0e 50 7f ed 33 94 fd
       76 -47 93 81 -100 12 -127 49 98 14 80 127 -19 51 -108 -3
000030 29 15 ee 37 da 7d 81 30 ee 00 49 3d 03 2a 7f c1
       41 21 -18 55 -38 125 -127 48 -18 0 73 61 3 42 127 -63
000040 f0 db 64 32 c2 e7 f3 14 6e 0d 43 e2 a9 d3 a5 ce
       -16 -37 100 50 -62 -25 -13 20 110 13 67 -30 -87 -45 -91 -50
000050 53 00 1d 41 15 7f c4 7f 35 36 31 3d 6e dc 2b cc
       83 0 29 65 21 127 -60 127 53 54 49 61 110 -36 43 -52
000060 63 02 7f 0b 53 f1 1f b3 62 fe e7 c2 c5 14 91 1f
       99 2 127 11 83 -15 31 -77 98 -2 -25 -62 -59 20 -111 31
000070 20 51 ee 26 72 a1 bd 70 4a 5d 5c 4f 2a d6 dd b1
       32 81 -18 38 114 -95 -67 112 74 93 92 79 42 -42 -35 -79
000080 40 89 1e f3 7f d5 ee b8 0f 52 82 87 bc 7f 81 56
       64 -119 30 -13 127 -43 -18 -72 15 82 -126 -121 -68 127 -127 86
000090 bd 5f 34 99 5f a2 81 10 35 7b 4e f0 e2 01 6a 81
       -67 95 52 -103 95 -94 -127 16 53 123 78 -16 -30 1 106 -127
0000a0 6a c9 47 93 dc 81 43 ff 75 7f 88 aa 81 5d 88 7f
       106 -55 71 -109 -36 -127 67 -1 117 127 -120 -86 -127 93 -120 127
0000b0 01 ce 37 ef 7f 8d ab 25 43 68 7f f3 7f ce e9 d7
       1 -50 55 -17 127 -115 -85 37 67 104 127 -13 127 -50 -23 -41
0000c0 81 81 50 81 08 8f 5b 1d 9f 75 81 93 4f e5 ef 24
       -127 -127 80 -127 8 -113 91 29 -97 117 -127 -109 79 -27 -17 36
0000d0 ca 81 7f 81 52 3c ed d0 7f 7f 1b 81 1c 81 3a aa
       -54 -127 127 -127 82 60 -19 -48 127 127 27 -127 28 -127 58 -86

tfl.pseudo_qconst19 i1 [64, 1, 1, 32]
000000 c5 e5 2b 1e d5 54 09 e9 c6 38 f9 24 2a dd 47 e3
       -59 -27 43 30 -43 84 9 -23 -58 56 -7 36 42 -35 71 -29
000010 ea 81 fd 11 2b f6 38 f1 30 fa 47 12 e6 6e 0f 19
       -22 -127 -3 17 43 -10 56 -15 48 -6 71 18 -26 110 15 25
000020 6d 81 37 a6 49 e6 d0 09 6f 02 2f d0 ae 23 0e 6e
       109 -127 55 -90 73 -26 -48 9 111 2 47 -48 -82 35 14 110
000030 b6 27 5c 84 f9 5d 37 07 0d f8 84 74 d6 02 91 dd
       -74 39 92 -124 -7 93 55 7 13 -8 -124 116 -42 2 -111 -35
000040 23 bc e5 e6 10 07 0f 0e 02 d6 0a 15 b7 f4 f6 39
       35 -68 -27 -26 16 7 15 14 2 -42 10 21 -73 -12 -10 57
000050 f9 7f 1e cc cb 41 16 0e 3c 2d cb 09 19 35 ee 17
       -7 127 30 -52 -53 65 22 14 60 45 -53 9 25 53 -18 23
000060 dd d9 20 ed ff 20 bb da 7f d7 c5 10 c6 be e0 24
       -35 -39 32 -19 -1 32 -69 -38 127 -41 -59 16 -58 -66 -32 36
000070 25 8a c4 df 1c 70 cc e6 50 ed c6 19 f5 ec f6 ff
       37 -118 -60 -33 28 112 -52 -26 80 -19 -58 25 -11 -20 -10 -1
000080 1e 06 73 62 d0 3a 07 f5 db 3e db 4c 4f ef 95 f6
       30 6 115 98 -48 58 7 -11 -37 62 -37 76 79 -17 -107 -10
000090 da e0 69 37 d0 1b bc 1b ef 4a df 4b f6 7f 25 2e
       -38 -32 105 55 -48 27 -68 27 -17 74 -33 75 -10 127 37 46
0000a0 02 35 d0 cc ce 68 d6 9a 6a 14 63 af cd 81 1b f1
       2 53 -48 -52 -50 104 -42 -102 106 20 99 -81 -51 -127 27 -15
0000b0 01 f3 27 f8 2f 57 17 b1 2c e3 9b 60 7b 3e 0d 20
       1 -13 39 -8 47 87 23 -79 44 -29 -101 96 123 62 13 32
0000c0 33 40 58 c6 10 fb 98 17 0d 7c 61 e0 64 be c5 7a
       51 64 88 -58 16 -5 -104 23 13 124 97 -32 100 -66 -59 122
0000d0 19 b8 81 f2 ed 06 bc 1b bf 42 d1 d2 e5 95 34 24
       25 -72 -127 -14 -19 6 -68 27 -65 66 -47 -46 -27 -107 52 36
0000e0 55 27 e2 31 81 e6 e0 18 04 dd dd 01 b7 03 14 e0
       85 39 -30 49 -127 -26 -32 24 4 -35 -35 1 -73 3 20 -32
0000f0 b9 12 5d 5b 01 17 d9 2b 49 04 fa 54 5c e8 5e d1
       -71 18 93 91 1 23 -39 43 73 4 -6 84 92 -24 94 -47

tfl.pseudo_qconst21 i1 [1, 5, 1, 32]
000000 7f 81 7f fa dc 20 bf 33 48 ac 67 f3 9e c4 0a a3
       127 -127 127 -6 -36 32 -65 51 72 -84 103 -13 -98 -60 10 -93
000010 d3 de f7 f8 08 68 a2 5f 90 7c d3 a9 89 db 6f 7f
       -45 -34 -9 -8 8 104 -94 95 -112 124 -45 -87 -119 -37 111 127
000020 53 f3 12 81 b8 ce 56 0d 7f b2 2c e9 8b 00 d7 7f
       83 -13 18 -127 -72 -50 86 13 127 -78 44 -23 -117 0 -41 127
000030 07 e3 6e d6 e9 7f 81 4a d1 81 81 63 c8 a3 e8 5c
       7 -29 110 -42 -23 127 -127 74 -47 -127 -127 99 -56 -93 -24 92
000040 f5 a7 f4 24 1a 02 7f 0c 51 81 fc ab a9 a7 a0 17
       -11 -89 -12 36 26 2 127 12 81 -127 -4 -85 -87 -89 -96 23
000050 37 5c 72 5a b4 14 9f f9 b3 03 c8 b5 81 e6 bd ac
       55 92 114 90 -76 20 -97 -7 -77 3 -56 -75 -127 -26 -67 -84
000060 b0 06 a9 1c 43 34 02 81 74 73 81 3f 7f 39 fd d5
       -80 6 -87 28 67 52 2 -127 116 115 -127 63 127 57 -3 -43
000070 eb 64 99 38 7f 4d a2 7f da 9a b9 b4 86 91 b7 e9
       -21 100 -103 56 127 77 -94 127 -38 -102 -71 -76 -122 -111 -73 -23
000080 31 19 a4 48 7f 7f a9 5f 3c 3c 81 7f 56 81 81 1c
       49 25 -92 72 127 127 -87 95 60 60 -127 127 86 -127 -127 28
000090 7f 7f 81 7f d6 ea 4c a1 81 e1 b0 7f 95 81 81 ed
       127 127 -127 127 -42 -22 76 -95 -127 -31 -80 127 -107 -127 -127 -19

tfl.pseudo_qconst23 i1 [32, 5, 1, 40]
000000 76 22 f8 e9 0e af f4 f9 f8 12 f5 11 3a 10 cf 0c
       118 34 -8 -23 14 -81 -12 -7 -8 18 -11 17 58 16 -49 12
000010 d2 c9 d3 16 d8 0a e5 09 27 05 24 dc e5 c5 dc e2
       -46 -55 -45 22 -40 10 -27 9 39 5 36 -36 -27 -59 -36 -30
000020 c4 f5 23 f8 1d ca 70 ee 57 5a e9 04 2e 81 c0 e2
       -60 -11 35 -8 29 -54 112 -18 87 90 -23 4 46 -127 -64 -30
000030 20 e7 cc 5f 58 36 0c e9 cd cd eb 35 c2 06 f2 1d
       32 -25 -52 95 88 54 12 -23 -51 -51 -21 53 -62 6 -14 29
000040 04 03 25 f9 aa af b8 c8 cb f4 17 e7 15 f4 55 07
       4 3 37 -7 -86 -81 -72 -56 -53 -12 23 -25 21 -12 85 7
000050 3f 3b 14 fa 0e ec a4 25 ed 61 eb 23 1c 09 40 1a
       63 59 20 -6 14 -20 -92 37 -19 97 -21 35 28 9 64 26
000060 e4 c6 ed 1f 15 23 1d d8 2c 1f 24 db e4 db 9a fc
       -28 -58 -19 31 21 35 29 -40 44 31 36 -37 -28 -37 -102 -4
000070 e7 34 02 30 1a 41 6e 00 08 26 dc 19 52 d1 b3 15
       -25 52 2 48 26 65 110 0 8 38 -36 25 82 -47 -77 21
000080 15 f8 1d 62 3b 61 4b f6 b6 cc ed 02 08 2d 0a 06
       21 -8 29 98 59 97 75 -10 -74 -52 -19 2 8 45 10 6
000090 0f 1a e9 da d2 cf d5 1f f1 0c 13 41 23 26 5a e5
       15 26 -23 -38 -46 -49 -43 31 -15 12 19 65 35 38 90 -27
0000a0 40 29 cb d2 68 e3 f7 f6 10 54 1d 30 1c 34 13 de
       64 41 -53 -46 104 -29 -9 -10 16 84 29 48 28 52 19 -34
0000b0 b0 8e d1 12 25 10 27 19 55 3b f2 a1 ac e7 dc 09
       -80 -114 -47 18 37 16 39 25 85 59 -14 -95 -84 -25 -36 9
0000c0 ea 35 18 08 45 39 77 f9 0a dd f3 ae f0 cd ff db
       -22 53 24 8 69 57 119 -7 10 -35 -13 -82 -16 -51 -1 -37
0000d0 ad cc db d0 f9 0f f4 d5 03 04 f8 15 06 ee fe 27
       -83 -52 -37 -48 -7 15 -12 -43 3 4 -8 21 6 -18 -2 39
0000e0 14 f2 e2 fb d6 f6 23 1f 14 07 11 2b 1e 7f 1c 09
       20 -14 -30 -5 -42 -10 35 31 20 7 17 43 30 127 28 9
0000f0 ec d5 f0 c1 d4 d7 da 07 ed ef 07 f5 f7 06 29 c3
       -20 -43 -16 -63 -44 -41 -38 7 -19 -17 7 -11 -9 6 41 -61

tfl.pseudo_qconst24 i1 [1, 14, 1, 64] scale=0.0571976 zero_point=-128
000000 80 80 80 80 80 80 80 80 80 80 80 80 80 80 80 80
       0.0 0.0 0.0 0.0 0.0 0.0 0.0 0.0 0.0 0.0 0.0 0.0 0.0 0.0 0.0 0.0
000010 80 80 80 80 80 80 80 80 80 80 80 80 80 80 80 80
       0.0 0.0 0.0 0.0 0.0 0.0 0.0 0.0 0.0 0.0 0.0 0.0 0.0 0.0 0.0 0.0
000020 80 80 80 80 80 80 80 80 80 80 80 80 80 80 80 80
       0.0 0.0 0.0 0.0 0.0 0.0 0.0 0.0 0.0 0.0 0.0 0.0 0.0 0.0 0.0 0.0
000030 80 80 80 80 80 80 80 80 80 80 80 80 80 80 80 80
       0.0 0.0 0.0 0.0 0.0 0.0 0.0 0.0 0.0 0.0 0.0 0.0 0.0 0.0 0.0 0.0
000040 80 80 80 80 80 80 80 80 80 80 80 80 80 80 80 80
       0.0 0.0 0.0 0.0 0.0 0.0 0.0 0.0 0.0 0.0 0.0 0.0 0.0 0.0 0.0 0.0
000050 80 80 80 80 80 80 80 80 80 80 80 80 80 80 80 80
       0.0 0.0 0.0 0.0 0.0 0.0 0.0 0.0 0.0 0.0 0.0 0.0 0.0 0.0 0.0 0.0
000060 80 80 80 80 80 80 80 80 80 80 80 80 80 80 80 80
       0.0 0.0 0.0 0.0 0.0 0.0 0.0 0.0 0.0 0.0 0.0 0.0 0.0 0.0 0.0 0.0
000070 80 80 80 80 80 80 80 80 80 80 80 80 80 80 80 80
       0.0 0.0 0.0 0.0 0.0 0.0 0.0 0.0 0.0 0.0 0.0 0.0 0.0 0.0 0.0 0.0
000080 80 80 80 80 80 80 80 80 80 80 80 80 80 80 80 80
       0.0 0.0 0.0 0.0 0.0 0.0 0.0 0.0 0.0 0.0 0.0 0.0 0.0 0.0 0.0 0.0
000090 80 80 80 80 80 80 80 80 80 80 80 80 80 80 80 80
       0.0 0.0 0.0 0.0 0.0 0.0 0.0 0.0 0.0 0.0 0.0 0.0 0.0 0.0 0.0 0.0
0000a0 80 80 80 80 80 80 80 80 80 80 80 80 80 80 80 80
       0.0 0.0 0.0 0.0 0.0 0.0 0.0 0.0 0.0 0.0 0.0 0.0 0.0 0.0 0.0 0.0
0000b0 80 80 80 80 80 80 80 80 80 80 80 80 80 80 80 80
       0.0 0.0 0.0 0.0 0.0 0.0 0.0 0.0 0.0 0.0 0.0 0.0 0.0 0.0 0.0 0.0
0000c0 80 80 80 80 80 80 80 80 80 80 80 80 80 80 80 80
       0.0 0.0 0.0 0.0 0.0 0.0 0.0 0.0 0.0 0.0 0.0 0.0 0.0 0.0 0.0 0.0
0000d0 80 80 80 80 80 80 80 80 80 80 80 80 80 80 80 80
       0.0 0.0 0.0 0.0 0.0 0.0 0.0 0.0 0.0 0.0 0.0 0.0 0.0 0.0 0.0 0.0
0000e0 80 80 80 80 80 80 80 80 80 80 80 80 80 80 80 80
       0.0 0.0 0.0 0.0 0.0 0.0 0.0 0.0 0.0 0.0 0.0 0.0 0.0 0.0 0.0 0.0
0000f0 80 80 80 80 80 80 80 80 80 80 80 80 80 80 80 80
       0.0 0.0 0.0 0.0 0.0 0.0 0.0 0.0 0.0 0.0 0.0 0.0 0.0 0.0 0.0 0.0

tfl.pseudo_qconst25 i1 [1, 10, 1, 64] scale=0.035127595 zero_point=-128
000000 80 80 80 80 80 80 80 80 80 80 80 80 80 80 80 80
       0.0 0.0 0.0 0.0 0.0 0.0 0.0 0.0 0.0 0.0 0.0 0.0 0.0 0.0 0.0 0.0
000010 80 80 80 80 80 80 80 80 80 80 80 80 80 80 80 80
       0.0 0.0 0.0 0.0 0.0 0.0 0.0 0.0 0.0 0.0 0.0 0.0 0.0 0.0 0.0 0.0
000020 80 80 80 80 80 80 80 80 80 80 80 80 80 80 80 80
       0.0 0.0 0.0 0.0 0.0 0.0 0.0 0.0 0.0 0.0 0.0 0.0 0.0 0.0 0.0 0.0
000030 80 80 80 80 80 80 80 80 80 80 80 80 80 80 80 80
       0.0 0.0 0.0 0.0 0.0 0.0 0.0 0.0 0.0 0.0 0.0 0.0 0.0 0.0 0.0 0.0
000040 80 80 80 80 80 80 80 80 80 80 80 80 80 80 80 80
       0.0 0.0 0.0 0.0 0.0 0.0 0.0 0.0 0.0 0.0 0.0 0.0 0.0 0.0 0.0 0.0
000050 80 80 80 80 80 80 80 80 80 80 80 80 80 80 80 80
       0.0 0.0 0.0 0.0 0.0 0.0 0.0 0.0 0.0 0.0 0.0 0.0 0.0 0.0 0.0 0.0
000060 80 80 80 80 80 80 80 80 80 80 80 80 80 80 80 80
       0.0 0.0 0.0 0.0 0.0 0.0 0.0 0.0 0.0 0.0 0.0 0.0 0.0 0.0 0.0 0.0
000070 80 80 80 80 80 80 80 80 80 80 80 80 80 80 80 80
       0.0 0.0 0.0 0.0 0.0 0.0 0.0 0.0 0.0 0.0 0.0 0.0 0.0 0.0 0.0 0.0
000080 80 80 80 80 80 80 80 80 80 80 80 80 80 80 80 80
       0.0 0.0 0.0 0.0 0.0 0.0 0.0 0.0 0.0 0.0 0.0 0.0 0.0 0.0 0.0 0.0
000090 80 80 80 80 80 80 80 80 80 80 80 80 80 80 80 80
       0.0 0.0 0.0 0.0 0.0 0.0 0.0 0.0 0.0 0.0 0.0 0.0 0.0 0.0 0.0 0.0
0000a0 80 80 80 80 80 80 80 80 80 80 80 80 80 80 80 80
       0.0 0.0 0.0 0.0 0.0 0.0 0.0 0.0 0.0 0.0 0.0 0.0 0.0 0.0 0.0 0.0
0000b0 80 80 80 80 80 80 80 80 80 80 80 80 80 80 80 80
       0.0 0.0 0.0 0.0 0.0 0.0 0.0 0.0 0.0 0.0 0.0 0.0 0.0 0.0 0.0 0.0
0000c0 80 80 80 80 80 80 80 80 80 80 80 80 80 80 80 80
       0.0 0.0 0.0 0.0 0.0 0.0 0.0 0.0 0.0 0.0 0.0 0.0 0.0 0.0 0.0 0.0
0000d0 80 80 80 80 80 80 80 80 80 80 80 80 80 80 80 80
       0.0 0.0 0.0 0.0 0.0 0.0 0.0 0.0 0.0 0.0 0.0 0.0 0.0 0.0 0.0 0.0
0000e0 80 80 80 80 80 80 80 80 80 80 80 80 80 80 80 80
       0.0 0.0 0.0 0.0 0.0 0.0 0.0 0.0 0.0 0.0 0.0 0.0 0.0 0.0 0.0 0.0
0000f0 80 80 80 80 80 80 80 80 80 80 80 80 80 80 80 80
       0.0 0.0 0.0 0.0 0.0 0.0 0.0 0.0 0.0 0.0 0.0 0.0 0.0 0.0 0.0 0.0

tfl.pseudo_qconst26 i1 [1, 4, 1, 32] scale=1.8172483 zero_point=-128
000000 80 80 80 80 80 80 80 80 80 80 80 80 80 80 80 80
       0.0 0.0 0.0 0.0 0.0 0.0 0.0 0.0 0.0 0.0 0.0 0.0 0.0 0.0 0.0 0.0
000010 80 80 80 80 80 80 80 80 80 80 80 80 80 80 80 80
       0.0 0.0 0.0 0.0 0.0 0.0 0.0 0.0 0.0 0.0 0.0 0.0 0.0 0.0 0.0 0.0
000020 80 80 80 80 80 80 80 80 80 80 80 80 80 80 80 80
       0.0 0.0 0.0 0.0 0.0 0.0 0.0 0.0 0.0 0.0 0.0 0.0 0.0 0.0 0.0 0.0
000030 80 80 80 80 80 80 80 80 80 80 80 80 80 80 80 80
       0.0 0.0 0.0 0.0 0.0 0.0 0.0 0.0 0.0 0.0 0.0 0.0 0.0 0.0 0.0 0.0
000040 80 80 80 80 80 80 80 80 80 80 80 80 80 80 80 80
       0.0 0.0 0.0 0.0 0.0 0.0 0.0 0.0 0.0 0.0 0.0 0.0 0.0 0.0 0.0 0.0
000050 80 80 80 80 80 80 80 80 80 80 80 80 80 80 80 80
       0.0 0.0 0.0 0.0 0.0 0.0 0.0 0.0 0.0 0.0 0.0 0.0 0.0 0.0 0.0 0.0
000060 80 80 80 80 80 80 80 80 80 80 80 80 80 80 80 80
       0.0 0.0 0.0 0.0 0.0 0.0 0.0 0.0 0.0 0.0 0.0 0.0 0.0 0.0 0.0 0.0
000070 80 80 80 80 80 80 80 80 80 80 80 80 80 80 80 80
       0.0 0.0 0.0 0.0 0.0 0.0 0.0 0.0 0.0 0.0 0.0 0.0 0.0 0.0 0.0 0.0

tfl.pseudo_qconst27 i1 [1, 3, 1, 40] scale=0.101960786 zero_point=-128
000000 80 80 80 80 80 80 80 80 80 80 80 80 80 80 80 80
       0.0 0.0 0.0 0.0 0.0 0.0 0.0 0.0 0.0 0.0 0.0 0.0 0.0 0.0 0.0 0.0
000010 80 80 80 80 80 80 80 80 80 80 80 80 80 80 80 80
       0.0 0.0 0.0 0.0 0.0 0.0 0.0 0.0 0.0 0.0 0.0 0.0 0.0 0.0 0.0 0.0
000020 80 80 80 80 80 80 80 80 80 80 80 80 80 80 80 80
       0.0 0.0 0.0 0.0 0.0 0.0 0.0 0.0 0.0 0.0 0.0 0.0 0.0 0.0 0.0 0.0
000030 80 80 80 80 80 80 80 80 80 80 80 80 80 80 80 80
       0.0 0.0 0.0 0.0 0.0 0.0 0.0 0.0 0.0 0.0 0.0 0.0 0.0 0.0 0.0 0.0
000040 80 80 80 80 80 80 80 80 80 80 80 80 80 80 80 80
       0.0 0.0 0.0 0.0 0.0 0.0 0.0 0.0 0.0 0.0 0.0 0.0 0.0 0.0 0.0 0.0
000050 80 80 80 80 80 80 80 80 80 80 80 80 80 80 80 80
       0.0 0.0 0.0 0.0 0.0 0.0 0.0 0.0 0.0 0.0 0.0 0.0 0.0 0.0 0.0 0.0
000060 80 80 80 80 80 80 80 80 80 80 80 80 80 80 80 80
       0.0 0.0 0.0 0.0 0.0 0.0 0.0 0.0 0.0 0.0 0.0 0.0 0.0 0.0 0.0 0.0
000070 80 80 80 80 80 80 80 80
       0.0 0.0 0.0 0.0 0.0 0.0 0.0 0.0

tfl.pseudo_qconst28 i1 [1, 36, 1, 64] scale=0.033679184 zero_point=-128
000000 80 80 80 80 80 80 80 80 80 80 80 80 80 80 80 80
       0.0 0.0 0.0 0.0 0.0 0.0 0.0 0.0 0.0 0.0 0.0 0.0 0.0 0.0 0.0 0.0
000010 80 80 80 80 80 80 80 80 80 80 80 80 80 80 80 80
       0.0 0.0 0.0 0.0 0.0 0.0 0.0 0.0 0.0 0.0 0.0 0.0 0.0 0.0 0.0 0.0
000020 80 80 80 80 80 80 80 80 80 80 80 80 80 80 80 80
       0.0 0.0 0.0 0.0 0.0 0.0 0.0 0.0 0.0 0.0 0.0 0.0 0.0 0.0 0.0 0.0
000030 80 80 80 80 80 80 80 80 80 80 80 80 80 80 80 80
       0.0 0.0 0.0 0.0 0.0 0.0 0.0 0.0 0.0 0.0 0.0 0.0 0.0 0.0 0.0 0.0
000040 80 80 80 80 80 80 80 80 80 80 80 80 80 80 80 80
       0.0 0.0 0.0 0.0 0.0 0.0 0.0 0.0 0.0 0.0 0.0 0.0 0.0 0.0 0.0 0.0
000050 80 80 80 80 80 80 80 80 80 80 80 80 80 80 80 80
       0.0 0.0 0.0 0.0 0.0 0.0 0.0 0.0 0.0 0.0 0.0 0.0 0.0 0.0 0.0 0.0
000060 80 80 80 80 80 80 80 80 80 80 80 80 80 80 80 80
       0.0 0.0 0.0 0.0 0.0 0.0 0.0 0.0 0.0 0.0 0.0 0.0 0.0 0.0 0.0 0.0
000070 80 80 80 80 80 80 80 80 80 80 80 80 80 80 80 80
       0.0 0.0 0.0 0.0 0.0 0.0 0.0 0.0 0.0 0.0 0.0 0.0 0.0 0.0 0.0 0.0
000080 80 80 80 80 80 80 80 80 80 80 80 80 80 80 80 80
       0.0 0.0 0.0 0.0 0.0 0.0 0.0 0.0 0.0 0.0 0.0 0.0 0.0 0.0 0.0 0.0
000090 80 80 80 80 80 80 80 80 80 80 80 80 80 80 80 80
       0.0 0.0 0.0 0.0 0.0 0.0 0.0 0.0 0.0 0.0 0.0 0.0 0.0 0.0 0.0 0.0
0000a0 80 80 80 80 80 80 80 80 80 80 80 80 80 80 80 80
       0.0 0.0 0.0 0.0 0.0 0.0 0.0 0.0 0.0 0.0 0.0 0.0 0.0 0.0 0.0 0.0
0000b0 80 80 80 80 80 80 80 80 80 80 80 80 80 80 80 80
       0.0 0.0 0.0 0.0 0.0 0.0 0.0 0.0 0.0 0.0 0.0 0.0 0.0 0.0 0.0 0.0
0000c0 80 80 80 80 80 80 80 80 80 80 80 80 80 80 80 80
       0.0 0.0 0.0 0.0 0.0 0.0 0.0 0.0 0.0 0.0 0.0 0.0 0.0 0.0 0.0 0.0
0000d0 80 80 80 80 80 80 80 80 80 80 80 80 80 80 80 80
       0.0 0.0 0.0 0.0 0.0 0.0 0.0 0.0 0.0 0.0 0.0 0.0 0.0 0.0 0.0 0.0
0000e0 80 80 80 80 80 80 80 80 80 80 80 80 80 80 80 80
       0.0 0.0 0.0 0.0 0.0 0.0 0.0 0.0 0.0 0.0 0.0 0.0 0.0 0.0 0.0 0.0
0000f0 80 80 80 80 80 80 80 80 80 80 80 80 80 80 80 80
       0.0 0.0 0.0 0.0 0.0 0.0 0.0 0.0 0.0 0.0 0.0 0.0 0.0 0.0 0.0 0.0

tfl.pseudo_qconst29 i1 [1, 22, 1, 64] scale=0.04539854 zero_point=-128
000000 80 80 80 80 80 80 80 80 80 80 80 80 80 80 80 80
       0.0 0.0 0.0 0.0 0.0 0.0 0.0 0.0 0.0 0.0 0.0 0.0 0.0 0.0 0.0 0.0
000010 80 80 80 80 80 80 80 80 80 80 80 80 80 80 80 80
       0.0 0.0 0.0 0.0 0.0 0.0 0.0 0.0 0.0 0.0 0.0 0.0 0.0 0.0 0.0 0.0
000020 80 80 80 80 80 80 80 80 80 80 80 80 80 80 80 80
       0.0 0.0 0.0 0.0 0.0 0.0 0.0 0.0 0.0 0.0 0.0 0.0 0.0 0.0 0.0 0.0
000030 80 80 80 80 80 80 80 80 80 80 80 80 80 80 80 80
       0.0 0.0 0.0 0.0 0.0 0.0 0.0 0.0 0.0 0.0 0.0 0.0 0.0 0.0 0.0 0.0
000040 80 80 80 80 80 80 80 80 80 80 80 80 80 80 80 80
       0.0 0.0 0.0 0.0 0.0 0.0 0.0 0.0 0.0 0.0 0.0 0.0 0.0 0.0 0.0 0.0
000050 80 80 80 80 80 80 80 80 80 80 80 80 80 80 80 80
       0.0 0.0 0.0 0.0 0.0 0.0 0.0 0.0 0.0 0.0 0.0 0.0 0.0 0.0 0.0 0.0
000060 80 80 80 80 80 80 80 80 80 80 80 80 80 80 80 80
       0.0 0.0 0.0 0.0 0.0 0.0 0.0 0.0 0.0 0.0 0.0 0.0 0.0 0.0 0.0 0.0
000070 80 80 80 80 80 80 80 80 80 80 80 80 80 80 80 80
       0.0 0.0 0.0 0.0 0.0 0.0 0.0 0.0 0.0 0.0 0.0 0.0 0.0 0.0 0.0 0.0
000080 80 80 80 80 80 80 80 80 80 80 80 80 80 80 80 80
       0.0 0.0 0.0 0.0 0.0 0.0 0.0 0.0 0.0 0.0 0.0 0.0 0.0 0.0 0.0 0.0
000090 80 80 80 80 80 80 80 80 80 80 80 80 80 80 80 80
       0.0 0.0 0.0 0.0 0.0 0.0 0.0 0.0 0.0 0.0 0.0 0.0 0.0 0.0 0.0 0.0
0000a0 80 80 80 80 80 80 80 80 80 80 80 80 80 80 80 80
       0.0 0.0 0.0 0.0 0.0 0.0 0.0 0.0 0.0 0.0 0.0 0.0 0.0 0.0 0.0 0.0
0000b0 80 80 80 80 80 80 80 80 80 80 80 80 80 80 80 80
       0.0 0.0 0.0 0.0 0.0 0.0 0.0 0.0 0.0 0.0 0.0 0.0 0.0 0.0 0.0 0.0
0000c0 80 80 80 80 80 80 80 80 80 80 80 80 80 80 80 80
       0.0 0.0 0.0 0.0 0.0 0.0 0.0 0.0 0.0 0.0 0.0 0.0 0.0 0.0 0.0 0.0
0000d0 80 80 80 80 80 80 80 80 80 80 80 80 80 80 80 80
       0.0 0.0 0.0 0.0 0.0 0.0 0.0 0.0 0.0 0.0 0.0 0.0 0.0 0.0 0.0 0.0
0000e0 80 80 80 80 80 80 80 80 80 80 80 80 80 80 80 80
       0.0 0.0 0.0 0.0 0.0 0.0 0.0 0.0 0.0 0.0 0.0 0.0 0.0 0.0 0.0 0.0
0000f0 80 80 80 80 80 80 80 80 80 80 80 80 80 80 80 80
       0.0 0.0 0.0 0.0 0.0 0.0 0.0 0.0 0.0 0.0 0.0 0.0 0.0 0.0 0.0 0.0
